Model Outputs/ModelV2/Second Model/second_quantized_modelV2.tflite (tflite, 6752 bytes, 5 tensors)

arith.constant f4 [64]
00000000: 3802 91be ebc0 51be d409 b1be ab62 acbe
00000010: 86d0 2dbe 7bc5 27bf 8893 39be 2851 87be
00000020: 6c7b 5cbe 11df e1be 69cf 62be 4fab d0be
00000030: d9e8 73be 4c01 babe acf5 48be 7464 ccbe
00000040: 0309 d8bd dc36 5bbe 3595 43be 3ad0 3abe
00000050: 0acf c8be 0c44 e8be 1197 62be 692c e3be
00000060: bcc6 83be d6e7 5ebe 240e bc3e 3490 cabe
00000070: f3df babe 6d70 3ebe 2587 e1be 318b 01bf
00000080: 33fa ccbe 334e 5dbe 2873 20be 1f96 ae3e
00000090: cce0 a0be 85a7 cfbe 5f20 b2be b1d4 bfbd
000000a0: 5f73 49be f551 75be 46f4 a8be 2cbf b0be
000000b0: 3068 69be 9df4 babe c1fb cbbe fc1e c4be
000000c0: 8c68 f9bd 964a 4fbe c4a2 6cbe f9ba 99be
000000d0: 7f8d 47be 1dbd 7abe c157 bbbe 11f2 2ebe
000000e0: 2241 6dbe 01b4 e1be c14c 66be 44a7 afbe
000000f0: bfd1 b6be e813 28be c917 65be 638a c1be
-0.28322005 -0.20483749 -0.3457781 -0.33669028 -0.16974077 -0.65535706 -0.18122685 -0.26429105
-0.21531457 -0.441155 -0.22149433 -0.40755698 -0.23819293 -0.36329114 -0.19624966 -0.3992039
-0.10548594 -0.21407646 -0.19099887 -0.18243495 -0.39220458 -0.45364416 -0.2212794 -0.4436982
-0.2573756 -0.21768126 0.36729538 -0.39563143 -0.36498985 -0.18597575 -0.4404842 -0.50603014
-0.40034637 -0.21611862 -0.15668929 0.34098908 -0.31421506 -0.40557495 -0.34790322 -0.093667395
-0.19672917 -0.23957045 -0.32998866 -0.34520853 -0.2279365 -0.3651475 -0.3984051 -0.3830489
-0.12178144 -0.20243296 -0.23108965 -0.3002546 -0.1948757 -0.24486203 -0.36590388 -0.17084529
-0.23169377 -0.44082645 -0.22490217 -0.343073 -0.357069 -0.16413844 -0.22372355 -0.37800893

arith.constant1 f4 [32]
00000000: b137 85be 99bb 99be 8c55 1a3e bbbb 99be
00000010: bfb9 99be 1692 8bbd 93ed 20be c7ba 99be
00000020: f0bc 99be bfee 78be b2bc 99be ecb9 99be
00000030: d03d 56be e89e fdbd 2fbd 99be 58b6 dfbd
00000040: 2cbd 99be 76ae 003e c889 38be 9bbc 99be
00000050: cfe3 b5be 6bbc 99be 14c4 1abe 96bf 72be
00000060: 3ebd 99be 36bd 99be df01 98be 1e4b c23d
00000070: 905b 31be e510 5c3d bdbb 99be 20bd 99be
-0.26019052 -0.30025938 0.15071696 -0.3002604 -0.30024526 -0.06814973 -0.15715627 -0.30025312
-0.3002696 -0.24309824 -0.30026776 -0.3002466 -0.20922017 -0.123838246 -0.30027148 -0.10923451
-0.3002714 0.12566552 -0.1802131 -0.30026707 -0.35525367 -0.30026564 -0.1511386 -0.23705897
-0.30027193 -0.3002717 -0.29688928 0.09486984 -0.17320085 0.05372705 -0.30026045 -0.30027103

arith.constant3 f4 [1, 32]
00000000: 0000 0000 0000 0000 0000 0000 0000 0000
00000010: 0000 0000 0000 0000 0000 0000 0000 0000
00000020: 0000 0000 0000 0000 0000 0000 0000 0000
00000030: 0000 0000 0000 0000 0000 0000 0000 0000
00000040: 0000 0000 0000 0000 0000 0000 0000 0000
00000050: 0000 0000 0000 0000 0000 0000 0000 0000
00000060: 0000 0000 0000 0000 0000 0000 0000 0000
00000070: 0000 0000 0000 0000 0000 0000 0000 0000
0.0 0.0 0.0 0.0 0.0 0.0 0.0 0.0
0.0 0.0 0.0 0.0 0.0 0.0 0.0 0.0
0.0 0.0 0.0 0.0 0.0 0.0 0.0 0.0
0.0 0.0 0.0 0.0 0.0 0.0 0.0 0.0

tfl.pseudo_qconst i1 [32, 64]
00000000: 0000 0000 0000 0000 0000 0000 0000 0000
00000010: 0000 0000 0000 8400 0000 0000 0000 0000
00000020: 0000 0000 0000 0000 0000 8400 0089 0000
00000030: 8100 0000 0000 0000 0000 0000 0000 0000
00000040: 0000 0000 0000 0083 0000 0000 0000 0000
00000050: 0000 0000 0000 0000 0000 0000 0000 0000
00000060: 0000 0088 0000 0086 0083 0000 0000 0000
00000070: 0000 8700 0000 0081 0000 0000 8500 0000
00000080: 0000 0000 0000 0000 0000 0000 0000 0000
00000090: 0000 0000 0000 0000 0000 0000 0000 0000
000000a0: 0000 0000 0000 0000 0000 0000 0000 0000
000000b0: 0000 0000 0000 0000 0000 0000 0000 0000
000000c0: 0000 0000 0000 0000 0086 0000 0000 0000
000000d0: 0000 0089 8a00 0000 0000 8100 0000 0000
000000e0: 0000 0000 0000 0000 8600 0000 0000 0000
000000f0: 0000 0000 0000 0000 0000 0000 8900 0000
0 0 0 0 0 0 0 0
0 0 0 0 0 0 0 0
0 0 0 0 0 0 -124 0
0 0 0 0 0 0 0 0
0 0 0 0 0 0 0 0
0 0 -124 0 0 -119 0 0
-127 0 0 0 0 0 0 0
0 0 0 0 0 0 0 0
0 0 0 0 0 0 0 -125
0 0 0 0 0 0 0 0
0 0 0 0 0 0 0 0
0 0 0 0 0 0 0 0
0 0 0 -120 0 0 0 -122
0 -125 0 0 0 0 0 0
0 0 -121 0 0 0 0 -127
0 0 0 0 -123 0 0 0
0 0 0 0 0 0 0 0
0 0 0 0 0 0 0 0
0 0 0 0 0 0 0 0
0 0 0 0 0 0 0 0
0 0 0 0 0 0 0 0
0 0 0 0 0 0 0 0
0 0 0 0 0 0 0 0
0 0 0 0 0 0 0 0
0 0 0 0 0 0 0 0
0 -122 0 0 0 0 0 0
0 0 0 -119 -118 0 0 0
0 0 -127 0 0 0 0 0
0 0 0 0 0 0 0 0
-122 0 0 0 0 0 0 0
0 0 0 0 0 0 0 0
0 0 0 0 -119 0 0 0

sequential_1_1/dense_3_1/MatMul i1 [64, 17]
00000000: 0000 009a 0000 8600 8100 0000 0000 0000
00000010: 0000 0000 0000 0000 0000 0000 0000 0000
00000020: 0000 0000 0000 0083 0000 8100 0000 0000
00000030: 0000 0000 009a 008e 0000 0000 0000 0081
00000040: 0000 0000 0000 0000 0000 0000 0000 0000
00000050: 0081 0000 00a0 0081 0000 0000 0000 00c1
00000060: 00bd 0000 0000 0000 0000 0000 0000 0000
00000070: 0000 0000 0000 0081 0000 0000 0000 0000
00000080: 0000 0000 0000 0000 0000 0000 0000 0000
00000090: 0000 0000 0081 0000 0081 0000 0091 00a1
000000a0: 0000 0000 0000 0000 0000 0000 0000 0000
000000b0: 8100 0000 0000 0000 0000 0000 0000 9c00
000000c0: 0000 009c 8181 9d00 0000 0000 008d 0000
000000d0: 0000 0000 0000 0081 0000 0000 0000 818b
000000e0: 8f00 8400 0000 0000 0000 0000 0000 0000
000000f0: 0081 0000 00d0 0000 0000 0000 0000 0000
0 0 0 -102 0 0 -122 0
-127 0 0 0 0 0 0 0
0 0 0 0 0 0 0 0
0 0 0 0 0 0 0 0
0 0 0 0 0 0 0 -125
0 0 -127 0 0 0 0 0
0 0 0 0 0 -102 0 -114
0 0 0 0 0 0 0 -127
0 0 0 0 0 0 0 0
0 0 0 0 0 0 0 0
0 -127 0 0 0 -96 0 -127
0 0 0 0 0 0 0 -63
0 -67 0 0 0 0 0 0
0 0 0 0 0 0 0 0
0 0 0 0 0 0 0 -127
0 0 0 0 0 0 0 0
0 0 0 0 0 0 0 0
0 0 0 0 0 0 0 0
0 0 0 0 0 -127 0 0
0 -127 0 0 0 -111 0 -95
0 0 0 0 0 0 0 0
0 0 0 0 0 0 0 0
-127 0 0 0 0 0 0 0
0 0 0 0 0 0 -100 0
0 0 0 -100 -127 -127 -99 0
0 0 0 0 0 -115 0 0
0 0 0 0 0 0 0 -127
0 0 0 0 0 0 -127 -117
-113 0 -124 0 0 0 0 0
0 0 0 0 0 0 0 0
0 -127 0 0 0 -48 0 0
0 0 0 0 0 0 0 0
