Model Outputs/ModelV1/Second Model/second_quantized_model.tflite (tflite, 6752 bytes, 5 tensors)

arith.constant f4 [64]
000000 b5 75 51 3b 32 3f 89 3d 0c 4a 1a 3e 43 33 2a 3e
       0.0031961028 0.06701507 0.15067309 0.16621117
000010 0c 03 1a 3e c6 4f 24 3e 92 84 32 3d 96 86 12 3d
       0.15040225 0.16046056 0.04358346 0.035772882
000020 f9 21 1c 3e a2 d2 f4 3c 04 0a 24 3d 78 24 0c 3e
       0.15247335 0.029885594 0.040048614 0.13685787
000030 92 d1 58 3d 93 54 12 3e 89 ae 36 3e 9a ea 03 3e
       0.052934237 0.14290075 0.17840017 0.12882462
000040 a7 73 06 3e 78 53 0f 3e 44 12 a1 bb 3a e9 60 3d
       0.13130055 0.13996685 -0.0049155075 0.054909922
000050 97 3a 90 3d 76 34 9e 3c e4 c7 83 3e 64 f8 0f 3e
       0.07042425 0.019312125 0.25738442 0.14059597
000060 8f 7e 8c 3d 20 14 fd 3c 3d 98 1b 3e ee ac 59 3e
       0.06860077 0.030893385 0.15194793 0.21257374
000070 1d bf 73 3d aa c3 55 3d c2 3f d0 3d f3 a2 e6 3d
       0.05950843 0.052188553 0.10168411 0.11261549
000080 d9 5e 4e 3e 79 7e 33 3d 88 db 0f 3e 53 ce 61 3d
       0.20153369 0.043821786 0.14048588 0.055128407
000090 4f 17 62 3e fc f4 3d 3d 04 4e b2 3d ec 75 43 be
       0.22079204 0.046376213 0.087062865 -0.19087952
0000a0 5e d9 f6 3d 34 1b 4c 3e 7b c0 1c 3e 81 58 14 3e
       0.12053178 0.19932252 0.153078 0.14486887
0000b0 6f af 2f 3e 49 c7 89 3e 71 5a 6c 3e 38 38 49 3e
       0.17156766 0.26909855 0.23081376 0.19650352
0000c0 20 2c 5b 3e 1b fe ac 3d ea 03 7c 3d d3 2f 67 3e
       0.21403551 0.08446904 0.06152717 0.22576837
0000d0 9d 4d 0e 3e 1d 9f a6 3d 33 18 53 3d 2c 94 08 3e
       0.13896795 0.08135817 0.05153675 0.13337773
0000e0 3b 70 a6 3d 68 da e0 3d 1a f3 e6 3d d7 76 07 3d
       0.08126875 0.10979158 0.11276837 0.03307232
0000f0 23 33 a7 3d 67 e9 c6 3d 2e 88 39 3e d1 34 81 3e
       0.081640504 0.09712487 0.18118355 0.25235608

arith.constant1 f4 [32]
000000 6e 66 b4 3d 33 6f 74 3e 83 ec 08 bd 8e 06 34 bd
       0.088085994 0.23870544 -0.03342868 -0.043951564
000010 a9 f1 30 bd 75 17 f8 3d e9 a4 15 bd 90 2c c2 bc
       -0.043199215 0.12113849 -0.036534224 -0.02370289
000020 25 12 50 bd cd f1 d4 bc bb 00 8e bc f0 a4 59 bd
       -0.050798554 -0.025994206 -0.017334333 -0.053135812
000030 c6 dd ef 3d 0c 51 15 bd 58 81 3a bd 3a f9 00 3e
       0.11712222 -0.036454245 -0.045533508 0.12595072
000040 bc 9b 25 3d b8 7a 40 bd d9 cc f8 bc e8 6b 61 3d
       0.040431723 -0.046992034 -0.030371116 0.055034548
000050 21 db 88 bc 71 1e 7d bd e9 d3 57 bd e9 bf 1e 3d
       -0.016706051 -0.06179661 -0.052692328 0.03875724
000060 fd f0 46 bd c1 d2 66 3e 71 21 af bc f9 15 7b bc
       -0.048569668 0.22541334 -0.02137825 -0.015325063
000070 5d 09 b5 bc fe ba a0 bc fc 4f 28 bd 01 b0 05 bc
       -0.022099191 -0.019620415 -0.041091904 -0.008159638

arith.constant3 f4 [1, 32]
000000 b4 0c af bf 85 82 9e bf 2f 42 d7 3e ec e0 f2 3e
       -1.3675752 -1.2383581 0.42042682 0.47437227
000010 73 ce df 3e 73 47 ca bf 00 00 00 00 23 97 b2 3e
       0.43712196 -1.5803055 0.0 0.34880933
000020 b5 ac fe 3e 74 f7 f8 3e 35 26 ac bf 0b 0d b2 3e
       0.4974114 0.48626292 -1.344916 0.34775576
000030 ba 3b 83 bf ad 95 d6 3e 7d 21 1c 3f 9d cd 85 bf
       -1.0252602 0.4191107 0.609886 -1.0453373
000040 c9 9d a6 bf ce 4f d6 3e 00 00 00 00 e9 7d 97 bf
       -1.3016902 0.4185776 0.0 -1.18353
000050 00 00 00 00 76 9b 1e 3f ec 00 c0 3e 97 09 bb bf
       0.0 0.61955965 0.37500703 -1.4612302
000060 18 b1 27 3f 5f 2b bd bf 8d 58 a4 3e 00 00 00 00
       0.655046 -1.4778861 0.3209881 0.0
000070 00 00 00 00 69 9c bd 3e 09 ce 17 3f 00 00 00 00
       0.0 0.37033394 0.5929876 0.0

tfl.pseudo_qconst i1 [32, 64]
000000 00 00 00 66 00 00 00 00 ac 00 c7 44 00 b7 4c 00
       0 0 0 102 0 0 0 0 -84 0 -57 68 0 -73 76 0
000010 89 bb b8 00 00 7f 00 00 00 33 00 60 00 00 38 00
       -119 -69 -72 0 0 127 0 0 0 51 0 96 0 0 56 0
000020 00 00 00 00 33 00 bf 00 00 00 00 00 00 00 00 34
       0 0 0 0 51 0 -65 0 0 0 0 0 0 0 0 52
000030 00 cb 00 00 00 cb 00 00 00 00 39 00 c5 00 ca 34
       0 -53 0 0 0 -53 0 0 0 0 57 0 -59 0 -54 52
000040 00 00 00 00 00 4c b8 ba 00 00 00 39 00 00 00 00
       0 0 0 0 0 76 -72 -70 0 0 0 57 0 0 0 0
000050 81 cc 00 27 00 00 00 00 ce 00 00 be c9 00 38 00
       -127 -52 0 39 0 0 0 0 -50 0 0 -66 -55 0 56 0
000060 40 00 00 00 83 00 00 4e cc 95 00 d5 00 00 33 00
       64 0 0 0 -125 0 0 78 -52 -107 0 -43 0 0 51 0
000070 00 00 00 00 00 00 00 00 00 00 be d3 2f 00 45 00
       0 0 0 0 0 0 0 0 0 0 -66 -45 47 0 69 0
000080 96 00 00 00 41 2f 00 34 00 00 00 00 00 2e 00 00
       -106 0 0 0 65 47 0 52 0 0 0 0 0 46 0 0
000090 00 00 3c 49 00 a0 00 00 00 00 3c 00 3a 00 00 00
       0 0 60 73 0 -96 0 0 0 0 60 0 58 0 0 0
0000a0 00 00 2d 00 00 3b 00 81 00 00 3a 00 00 3a 59 00
       0 0 45 0 0 59 0 -127 0 0 58 0 0 58 89 0
0000b0 00 00 00 41 00 00 00 00 00 00 00 3f 00 00 00 39
       0 0 0 65 0 0 0 0 0 0 0 63 0 0 0 57
0000c0 a6 00 00 00 39 00 2a 00 00 00 00 00 00 00 00 00
       -90 0 0 0 57 0 42 0 0 0 0 0 0 0 0 0
0000d0 00 00 2b 3e 00 c4 00 48 00 31 00 37 00 35 00 33
       0 0 43 62 0 -60 0 72 0 49 0 55 0 53 0 51
0000e0 00 00 00 00 33 29 2d 81 00 2e 3d 00 00 00 3d 00
       0 0 0 0 51 41 45 -127 0 46 61 0 0 0 61 0
0000f0 00 00 00 00 00 00 00 00 00 00 00 4f 00 00 00 00
       0 0 0 0 0 0 0 0 0 0 0 79 0 0 0 0

sequential_1_1/dense_3_1/MatMul i1 [64, 17]
000000 00 b0 81 48 00 00 00 31 00 00 00 00 cc 00 42 00
       0 -80 -127 72 0 0 0 49 0 0 0 0 -52 0 66 0
000010 00 00 00 34 00 00 8d 00 00 00 00 00 00 00 00 00
       0 0 0 52 0 0 -115 0 0 0 0 0 0 0 0 0
000020 7f 00 00 00 00 00 7f 00 00 00 00 00 00 00 00 00
       127 0 0 0 0 0 127 0 0 0 0 0 0 0 0 0
000030 00 00 00 00 00 5f 9c 00 57 ac b9 00 00 00 00 51
       0 0 0 0 0 95 -100 0 87 -84 -71 0 0 0 0 81
000040 00 7f 00 4b 00 00 00 00 00 70 00 81 00 5c 00 00
       0 127 0 75 0 0 0 0 0 112 0 -127 0 92 0 0
000050 00 00 00 00 00 47 68 00 59 00 00 00 00 00 00 00
       0 0 0 0 0 71 104 0 89 0 0 0 0 0 0 0
000060 00 7f 5f 00 00 00 00 96 00 59 00 00 81 00 00 00
       0 127 95 0 0 0 0 -106 0 89 0 0 -127 0 0 0
000070 00 00 00 00 8c 00 00 00 42 00 c0 00 00 00 ca 00
       0 0 0 0 -116 0 0 0 66 0 -64 0 0 0 -54 0
000080 00 00 00 00 af 00 7f 3e 00 00 00 00 7f 70 00 66
       0 0 0 0 -81 0 127 62 0 0 0 0 127 112 0 102
000090 00 00 00 60 00 00 00 00 00 00 00 00 41 69 7f 00
       0 0 0 96 0 0 0 0 0 0 0 0 65 105 127 0
0000a0 ad 00 5b 00 40 00 00 00 00 00 00 00 00 00 6b 7b
       -83 0 91 0 64 0 0 0 0 0 0 0 0 0 107 123
0000b0 00 00 00 00 00 00 00 00 00 7f 00 00 46 7f c9 00
       0 0 0 0 0 0 0 0 0 127 0 0 70 127 -55 0
0000c0 a0 74 00 00 4e 00 00 40 00 47 00 aa 00 d8 cd c3
       -96 116 0 0 78 0 0 64 0 71 0 -86 0 -40 -51 -61
0000d0 00 51 a8 00 00 00 00 00 00 b8 38 00 81 00 00 00
       0 81 -88 0 0 0 0 0 0 -72 56 0 -127 0 0 0
0000e0 5f 00 63 00 00 55 00 66 00 00 00 00 7f 00 00 00
       95 0 99 0 0 85 0 102 0 0 0 0 127 0 0 0
0000f0 d1 73 00 00 b0 00 00 00 37 3c 81 00 57 00 49 00
       -47 115 0 0 -80 0 0 0 55 60 -127 0 87 0 73 0
