Model Outputs/Models/Fifth Model/fifth_quantized_modelV2.tflite (tflite, 6752 bytes, 5 tensors)

arith.constant f4 [64]
00000000: 79a7 30be b698 98bd d205 a4bd 4170 34be
00000010: 8f4f f8bd 2909 2ebe 44f6 03be b29c 4a3e
00000020: 23d7 59be f6d4 b3bd 0635 29be 586d e4bd
00000030: 0575 f3bd cce3 14be ac4a 03be b5c7 d8bd
00000040: d485 acbd b759 3ebe 570d 28be e93c c2bd
00000050: b202 a73e 57bb 24be 22f1 2ebe 5453 b6be
00000060: 590b 7d3e 0248 3fbe 833c edbd ae95 fdbd
00000070: fcda e4bd dbdd 16be 1154 3cbe ff8c 1fbe
00000080: eaed 27be b833 a23e b8f5 06be adae 06be
00000090: ecda 65be c0ac 8dbd 441e fabd 0259 ebbd
000000a0: 08a9 02be 2626 b6be e6c8 19be c4d5 10be
000000b0: 24a0 cdbd 34d6 12be 53d0 223e 9824 f4bd
000000c0: c090 9ebd 8315 70be 5582 07be 846a b2bd
000000d0: bc5c 48be 1e53 fbbd d02e 09be 7f50 0dbe
000000e0: 318f 1bbd 9a55 05be 6beb bebd 8b3d 5dbd
000000f0: ee78 49be b4c9 f7bd 13e6 3cbd a9dc 2fbe
-0.17251386 -0.07451002 -0.08008923 -0.17620946 -0.121245496 -0.16995682 -0.12886912 0.19786337
-0.21273474 -0.087808535 -0.16524133 -0.11153668 -0.11887554 -0.14540023 -0.12821454 -0.10584966
-0.08423963 -0.18588911 -0.16411339 -0.09484274 0.32619244 -0.1608709 -0.17084172 -0.3561045
0.2471136 -0.18679813 -0.11583807 -0.12382065 -0.111745805 -0.14733069 -0.18391444 -0.1558113
-0.16399351 0.31680083 -0.13179672 -0.13152571 -0.22446793 -0.06917715 -0.12212804 -0.11491586
-0.12759793 -0.3557598 -0.15018043 -0.14144045 -0.1004031 -0.14339525 0.15899782 -0.11921042
-0.077424526 -0.23445706 -0.13233311 -0.087117225 -0.19566625 -0.12271713 -0.13396764 -0.13800238
-0.037978355 -0.13020936 -0.09322246 -0.05401377 -0.19675037 -0.12099019 -0.046117853 -0.17174019

arith.constant1 f4 [32]
00000000: 25f0 913e bd77 763c bc2c a43d db72 91bd
00000010: cf7b 77bd a930 8b3d 74c3 7c3e 25a2 8ebc
00000020: 4bff 91bd eebb 99bd a02c 933e 34ca 98bd
00000030: 0b6d 8abd 3e39 aebd e21a 95bd 853b 01be
00000040: 9963 8dbe 04b4 6b3d 6242 a2bc f606 033f
00000050: 2d63 b2b9 3d4a b13e 3d7c aa3d 7da2 1a3d
00000060: 794c a03c a577 4b3d 795d a8bd 6ebc a9bc
00000070: 445b bdbd 38fa 75bd ca39 ec3e 6bcc 98bd
0.28503528 0.015043196 0.08016345 -0.07101985 -0.060420807 0.067963906 0.24683934 -0.0174113
-0.071287714 -0.07506548 0.28744984 -0.07460442 -0.067590795 -0.08507012 -0.07280518 -0.12620361
-0.2761505 0.057544723 -0.019807044 0.51182497 -0.00034024697 0.34626952 0.08324478 0.037752617
0.019567715 0.04967465 -0.082209535 -0.020719733 -0.09245923 -0.06005308 0.4613784 -0.07460865

arith.constant3 f4 [1, 32]
00000000: 0000 0000 0000 0000 0000 0000 0000 0000
00000010: 0000 0000 0000 0000 0000 0000 b012 083e
00000020: 16f3 55be 0000 0000 0000 0000 96b3 acbe
00000030: 0000 0000 0000 0000 0000 0000 0000 0000
00000040: 0000 0000 0000 0000 0000 0000 e8e7 1f3e
00000050: b0b5 da3d 0000 0000 0000 0000 b8d7 2d3e
00000060: 0000 0000 1235 983e 0000 0000 0000 0000
00000070: 0000 0000 2087 8ebe 0712 063e 0000 0000
0.0 0.0 0.0 0.0 0.0 0.0 0.0 0.13288379
-0.20893511 0.0 0.0 -0.33730763 0.0 0.0 0.0 0.0
0.0 0.0 0.0 0.15615809 0.106791854 0.0 0.0 0.16976821
0.0 0.2972799 0.0 0.0 0.0 -0.27837467 0.13092814 0.0

tfl.pseudo_qconst i1 [32, 64]
00000000: 0000 a4a8 ac4e 3cc6 a630 009e 4135 2f2a
00000010: bdd4 5000 0045 b9cb c700 00c0 005c 0050
00000020: 0000 3d00 5300 00cb 0000 004d bb00 0074
00000030: 0059 0042 40ae 0041 ab00 8144 0000 2cd3
00000040: a4a0 cc97 523c 0000 ce57 7083 5b00 3e00
00000050: 4784 b3b4 49c9 0000 a200 5d45 8897 2e94
00000060: 0000 4600 a100 c353 00d4 0000 0000 b1bf
00000070: 0000 bd00 003a 00d0 0000 8147 d1cc 00d0
00000080: 3e00 0000 bf00 0000 c400 5200 2cac b468
00000090: c281 ab00 9000 3000 3a57 00bc bccf 5500
000000a0: c400 9b00 006d 0000 bd00 009a b051 ca00
000000b0: 3300 0000 2f00 9536 00d1 00ba 8c00 5200
000000c0: 00c8 93a9 8fab 00aa 40a5 003c 9700 c700
000000d0: 0000 b63c 0000 8a3c a041 009c 9aa3 0046
000000e0: 8100 b0a7 0000 0000 00c6 00b0 00a0 ae31
000000f0: c500 00d2 aac9 0000 0049 0000 0000 00b0
0 0 -92 -88 -84 78 60 -58
-90 48 0 -98 65 53 47 42
-67 -44 80 0 0 69 -71 -53
-57 0 0 -64 0 92 0 80
0 0 61 0 83 0 0 -53
0 0 0 77 -69 0 0 116
0 89 0 66 64 -82 0 65
-85 0 -127 68 0 0 44 -45
-92 -96 -52 -105 82 60 0 0
-50 87 112 -125 91 0 62 0
71 -124 -77 -76 73 -55 0 0
-94 0 93 69 -120 -105 46 -108
0 0 70 0 -95 0 -61 83
0 -44 0 0 0 0 -79 -65
0 0 -67 0 0 58 0 -48
0 0 -127 71 -47 -52 0 -48
62 0 0 0 -65 0 0 0
-60 0 82 0 44 -84 -76 104
-62 -127 -85 0 -112 0 48 0
58 87 0 -68 -68 -49 85 0
-60 0 -101 0 0 109 0 0
-67 0 0 -102 -80 81 -54 0
51 0 0 0 47 0 -107 54
0 -47 0 -70 -116 0 82 0
0 -56 -109 -87 -113 -85 0 -86
64 -91 0 60 -105 0 -57 0
0 0 -74 60 0 0 -118 60
-96 65 0 -100 -102 -93 0 70
-127 0 -80 -89 0 0 0 0
0 -58 0 -80 0 -96 -82 49
-59 0 0 -46 -86 -55 0 0
0 73 0 0 0 0 0 -80

sequential_1_1/dense_3_1/MatMul i1 [64, 17]
00000000: 0000 b881 d8c6 0000 d600 b9b8 ad00 0000
00000010: 0081 00a9 3fb8 0000 0000 00b9 0000 0000
00000020: 0000 0000 8100 008f ccb7 c2c0 0000 0000
00000030: 0000 0081 3292 008f 00cd b000 0000 003e
00000040: 0000 0000 9900 0040 00b7 8100 0000 0000
00000050: 0000 0000 00af b0a6 a7ac 008d b681 00a6
00000060: ac00 0000 0035 00cb 00a0 a700 8197 b7d1
00000070: 3c00 a800 0000 0040 4d00 573b 477f 7900
00000080: 0000 5351 0000 0000 00bc b100 00aa b990
00000090: d100 b300 8100 0000 00c9 0000 0000 8100
000000a0: 3c00 0000 00cd 0000 0000 d9c2 00c8 00d0
000000b0: cfae a0be c9cd 8100 0000 3700 8100 ac00
000000c0: 9f93 0000 0000 cd00 0000 0000 81a8 c500
000000d0: 003e 0000 ba3c 0000 2f00 0000 0000 8100
000000e0: 93c3 0000 0095 b6be 0000 0000 0000 b000
000000f0: 00d6 0000 0081 dbd4 bdc3 bacb 0000 00c2
0 0 -72 -127 -40 -58 0 0
-42 0 -71 -72 -83 0 0 0
0 -127 0 -87 63 -72 0 0
0 0 0 -71 0 0 0 0
0 0 0 0 -127 0 0 -113
-52 -73 -62 -64 0 0 0 0
0 0 0 -127 50 -110 0 -113
0 -51 -80 0 0 0 0 62
0 0 0 0 -103 0 0 64
0 -73 -127 0 0 0 0 0
0 0 0 0 0 -81 -80 -90
-89 -84 0 -115 -74 -127 0 -90
-84 0 0 0 0 53 0 -53
0 -96 -89 0 -127 -105 -73 -47
60 0 -88 0 0 0 0 64
77 0 87 59 71 127 121 0
0 0 83 81 0 0 0 0
0 -68 -79 0 0 -86 -71 -112
-47 0 -77 0 -127 0 0 0
0 -55 0 0 0 0 -127 0
60 0 0 0 0 -51 0 0
0 0 -39 -62 0 -56 0 -48
-49 -82 -96 -66 -55 -51 -127 0
0 0 55 0 -127 0 -84 0
-97 -109 0 0 0 0 -51 0
0 0 0 0 -127 -88 -59 0
0 62 0 0 -70 60 0 0
47 0 0 0 0 0 -127 0
-109 -61 0 0 0 -107 -74 -66
0 0 0 0 0 0 -80 0
0 -42 0 0 0 -127 -37 -44
-67 -61 -70 -53 0 0 0 -62
