Model Outputs/ModelV1/Fourth Model/fourth_quantized_model.tflite (tflite, 6752 bytes, 5 tensors)

arith.constant f4 [64]
000000 45 9a c6 be c5 d2 86 c1 31 67 eb be 8a 0a d3 be
       -0.38789573 -16.852915 -0.45977166 -0.41218978
000010 57 94 6e c1 2b 51 fe c1 4e 71 6c bf 15 19 0d bf
       -14.911216 -31.789633 -0.9236039 -0.551164
000020 f1 8e 2e bf 19 86 61 bf dc 42 bb be f6 34 61 c1
       -0.6818686 -0.8809524 -0.36574447 -14.07543
000030 a2 fd 25 bf 25 f1 bd c1 33 b6 82 c1 bb b8 ce be
       -0.6484014 -23.742746 -16.338964 -0.40375313
000040 a4 c0 07 3f cd f9 a2 c1 b3 05 21 bf 8c 44 85 bf
       0.5302832 -20.371973 -0.6289932 -1.0411544
000050 5b 98 5b c1 43 71 1f bf e6 62 3c c1 f2 d6 16 c1
       -13.724696 -0.622822 -11.774145 -9.427477
000060 e5 7b 66 bf a2 46 78 c1 7f 97 4a bf bb fa 1e c1
       -0.900328 -15.517244 -0.79137415 -9.9362135
000070 8e a1 06 c0 a2 db 15 bf 3a d6 10 bf 95 a2 62 c1
       -2.1036105 -0.5853826 -0.56576884 -14.164693
000080 16 9d 95 c1 c3 4b 02 c1 b7 f6 88 c1 79 b6 c2 c1
       -18.701702 -8.1434965 -17.120466 -24.339098
000090 de c5 ba be 1e 8e 33 c1 19 34 79 be 71 43 8c c1
       -0.36479086 -11.222197 -0.2433628 -17.53293
0000a0 c0 44 87 c1 dc 62 e2 c1 ab d6 5b c1 4c 25 85 c1
       -16.90857 -28.298271 -13.739909 -16.643211
0000b0 92 2d d1 c0 27 5c 9a c1 2b 16 c9 bf 68 80 3d c1
       -6.536813 -19.294996 -1.570989 -11.843849
0000c0 bf e0 65 be ec 77 97 bf 06 41 b9 c1 5b 60 fe 3f
       -0.22449015 -1.1833472 -23.15675 1.9873155
0000d0 97 c3 99 c1 4f e5 22 bf 4d c8 ff 3f c3 da 98 be
       -19.220503 -0.6363115 1.9983002 -0.29854402
0000e0 16 13 e1 c0 b9 ab 58 bf e4 be 47 bf 52 a4 47 c1
       -7.03358 -0.8463703 -0.7802565 -12.477617
0000f0 d8 5c dc c1 58 20 a9 be f2 47 2c be 8d cb 32 c1
       -27.545334 -0.3303249 -0.1682432 -11.174695

arith.constant1 f4 [32]
000000 ad 80 f4 c0 3d 8b d4 40 22 eb 70 bf 3c 7e 80 c0
       -7.6407075 6.641997 -0.94108784 -4.0154095
000010 93 9b d7 bf a9 8e 11 c1 0e 0e f2 be 29 3b 5e c0
       -1.6844352 -9.097329 -0.47276348 -3.4723608
000020 78 91 c9 be 4d 3c d7 be 85 60 f0 c0 f7 20 29 c0
       -0.39368796 -0.42038193 -7.511782 -2.642637
000030 4e f4 a6 c0 20 ed 97 c0 c0 73 15 c0 6b a9 e8 c0
       -5.2173223 -4.747696 -2.3351898 -7.270681
000040 d0 15 c2 c0 5b 3c d7 be d6 1c d2 c0 71 e3 a2 bf
       -6.0651627 -0.42038235 -6.56602 -1.272566
000050 76 02 d3 40 00 cb 5e c0 5b 3c d7 be d0 bf a5 c0
       6.5940504 -3.4811401 -0.42038235 -5.1796646
000060 27 84 ec c0 8b ee 5b bf 74 04 3a c1 59 3c d7 be
       -7.391132 -0.8591086 -11.626087 -0.4203823
000070 5a 77 e0 c0 00 da 5b bf d7 e7 12 c0 e6 4f 46 c2
       -7.0145693 -0.85879517 -2.2954004 -49.578026

arith.constant3 f4 [1, 32]
000000 f0 e5 a2 bf 56 57 24 3f 00 00 00 00 a5 02 23 3f
       -1.2726421 0.64195764 0.0 0.6367591
000010 00 00 00 00 3d 89 30 3f fc b1 cc bd f4 fb f2 3f
       0.0 0.6895941 -0.09994885 1.898314
000020 37 72 9b 3e e1 3b bb 3e 28 5b e3 bf f3 15 ff bf
       0.30360577 0.3656912 -1.7762194 -1.9928573
000030 79 42 5e bf 82 29 08 c0 93 63 01 c0 f9 92 04 c0
       -0.8682018 -2.1275334 -2.0217025 -2.0714705
000040 dc 3c de bf 00 00 00 00 d4 0b 56 3f c0 7c c6 bf
       -1.7362323 0.0 0.836118 -1.5506821
000050 3b 9d 7d 3e 57 08 87 bf da d1 c4 3d c0 ab 01 40
       0.2476701 -1.054942 0.096103385 2.0261078
000060 c9 39 e6 bf 00 00 00 00 28 ec 81 bf fd 96 73 3e
       -1.7986385 0.0 -1.0150194 0.23788066
000070 0b 03 83 be 30 63 83 3e fe 6a 00 c0 e5 28 51 bf
       -0.2558826 0.25661612 -2.0065303 -0.81703025

tfl.pseudo_qconst i1 [32, 64]
000000 fa d9 00 02 cb b8 fa fd fd fc 00 dd fb f6 f6 f6
       -6 -39 0 2 -53 -72 -6 -3 -3 -4 0 -35 -5 -10 -10 -10
000010 81 d4 fc f7 f7 00 db e0 fb f2 03 ce fb f6 fa f6
       -127 -44 -4 -9 -9 0 -37 -32 -5 -14 3 -50 -5 -10 -6 -10
000020 05 f6 e0 de f6 ca f8 b6 d5 f8 ff d6 fe f6 fc 16
       5 -10 -32 -34 -10 -54 -8 -74 -43 -8 -1 -42 -2 -10 -4 22
000030 00 fc e0 d0 f4 f7 00 f7 db fc f6 fb f7 fc 00 c8
       0 -4 -32 -48 -12 -9 0 -9 -37 -4 -10 -5 -9 -4 0 -56
000040 00 f4 00 00 04 fe 00 00 00 00 00 b5 00 00 f5 00
       0 -12 0 0 4 -2 0 0 0 0 0 -75 0 0 -11 0
000050 04 03 00 ff 05 00 ff fd 00 ad 00 04 ff 01 01 00
       4 3 0 -1 5 0 -1 -3 0 -83 0 4 -1 1 1 0
000060 81 fe f7 fe 00 86 00 fd 03 f9 b5 e3 00 00 fe fe
       -127 -2 -9 -2 0 -122 0 -3 3 -7 -75 -29 0 0 -2 -2
000070 00 00 fa f6 f6 ff fa 00 e9 00 ff ba f2 ff 00 00
       0 0 -6 -10 -10 -1 -6 0 -23 0 -1 -70 -14 -1 0 0
000080 f0 f7 00 04 cb de 05 f9 f9 f7 00 e6 f2 e4 e2 fb
       -16 -9 0 4 -53 -34 5 -7 -7 -9 0 -26 -14 -28 -30 -5
000090 ef 00 0e f4 00 fc ec f0 00 f0 05 f3 f7 0b 14 e8
       -17 0 14 -12 0 -4 -20 -16 0 -16 5 -13 -9 11 20 -24
0000a0 ee ef 81 e1 f2 00 fb f7 f8 ee ef e2 ee f2 ee fb
       -18 -17 -127 -31 -14 0 -5 -9 -8 -18 -17 -30 -18 -14 -18 -5
0000b0 00 f7 f0 f3 eb ed fa 00 ef ee ea f3 e0 00 f3 ef
       0 -9 -16 -13 -21 -19 -6 0 -17 -18 -22 -13 -32 0 -13 -17
0000c0 fa f8 fe 00 e2 ef 05 04 00 02 00 81 00 e0 fe fa
       -6 -8 -2 0 -30 -17 5 4 0 2 0 -127 0 -32 -2 -6
0000d0 d3 03 0a 00 c1 02 fb c9 02 ec fb db f7 09 08 ef
       -45 3 10 0 -63 2 -5 -55 2 -20 -5 -37 -9 9 8 -17
0000e0 f4 00 91 d6 f8 cd fd ea 00 f2 c1 d9 f1 de f1 fd
       -12 0 -111 -42 -8 -51 -3 -22 0 -14 -63 -39 -15 -34 -15 -3
0000f0 fd fd f5 9b bb fc e2 fe de f9 f0 d2 f5 fd f9 de
       -3 -3 -11 -101 -69 -4 -30 -2 -34 -7 -16 -46 -11 -3 -7 -34

sequential_2_1/dense_6_1/MatMul i1 [64, 17]
000000 b9 f2 81 00 c6 00 a7 ba 91 e0 00 a0 c7 e2 d8 00
       -71 -14 -127 0 -58 0 -89 -70 -111 -32 0 -96 -57 -30 -40 0
000010 e2 df 33 ee d6 e1 cd 81 d7 f5 f6 f5 f4 8c de e4
       -30 -33 51 -18 -42 -31 -51 -127 -41 -11 -10 -11 -12 -116 -34 -28
000020 16 b3 81 b3 e7 00 d2 1a bb d1 da d6 f1 bb 00 d3
       22 -77 -127 -77 -25 0 -46 26 -69 -47 -38 -42 -15 -69 0 -45
000030 d3 00 00 a2 95 f3 d2 cc b0 81 ec 00 90 ec ef d7
       -45 0 0 -94 -107 -13 -46 -52 -80 -127 -20 0 -112 -20 -17 -41
000040 0e 00 ee ea e7 19 04 e3 13 b3 81 b1 f7 f8 f8 f8
       14 0 -18 -22 -25 25 4 -29 19 -77 -127 -79 -9 -8 -8 -8
000050 bf d5 0a 0a cd c1 30 da dd e1 b0 ed de ec eb ef
       -65 -43 10 10 -51 -63 48 -38 -35 -31 -80 -19 -34 -20 -21 -17
000060 ef 91 2e 81 0e 51 bc ca ad b0 d9 0f 81 9a ae cc
       -17 -111 46 -127 14 81 -68 -54 -83 -80 -39 15 -127 -102 -82 -52
000070 e9 e7 b7 00 f3 f2 27 c7 d1 81 8b b4 b4 d2 c9 b9
       -23 -25 -73 0 -13 -14 39 -57 -47 -127 -117 -76 -76 -46 -55 -71
000080 c1 b1 c5 86 d6 c3 00 cb c2 00 d8 b9 98 d3 ab 8b
       -63 -79 -59 -122 -42 -61 0 -53 -62 0 -40 -71 -104 -45 -85 -117
000090 00 cb d1 ce 81 ef de 00 2a c1 c8 09 91 b9 ef 81
       0 -53 -47 -50 -127 -17 -34 0 42 -63 -56 9 -111 -71 -17 -127
0000a0 ab 9d d4 ae 97 00 30 00 00 e8 e1 22 f1 a6 f1 e8
       -85 -99 -44 -82 -105 0 48 0 0 -24 -31 34 -15 -90 -15 -24
0000b0 b0 81 c8 ab ec 00 c4 00 e4 00 f8 d8 0e 08 98 a6
       -80 -127 -56 -85 -20 0 -60 0 -28 0 -8 -40 14 8 -104 -90
0000c0 4f ee a7 f7 f5 f6 f6 94 2b 81 ca 60 c3 bd e3 d1
       79 -18 -89 -9 -11 -10 -10 -108 43 -127 -54 96 -61 -67 -29 -47
0000d0 cd 10 81 c5 e9 e0 d5 c0 82 e0 ec 00 00 c5 d4 97
       -51 16 -127 -59 -23 -32 -43 -64 -126 -32 -20 0 0 -59 -44 -105
0000e0 a6 81 11 0c bb fb fb f8 fd e4 4d 74 ec 95 de 42
       -90 -127 17 12 -69 -5 -5 -8 -3 -28 77 116 -20 -107 -34 66
0000f0 d9 85 fc c6 a9 8f f7 f7 f7 f6 81 dc b0 2a 18 ab
       -39 -123 -4 -58 -87 -113 -9 -9 -9 -10 -127 -36 -80 42 24 -85
