Model Outputs/Models/Fourth Model/fourth_quantized_modelV2.tflite (tflite, 6752 bytes, 5 tensors)

arith.constant f4 [64]
0	0xc0da26fd	-6.8172593
1	0xc08348da	-4.102643
2	0xc083c9a7	-4.118366
3	0xc0ca1a71	-6.3157277
4	0xc0ca2e61	-6.3181615
5	0xc0fa7940	-7.827301
6	0xc083a651	-4.1140523
7	0xc0b5f375	-5.685969
8	0xc0bcfa21	-5.9055333
9	0xc0d5eaf5	-6.6849313
10	0xc0ca2d83	-6.3180556
11	0xc083986e	-4.112357
12	0xc084b234	-4.1467533
13	0xc084a82f	-4.14553
14	0xc0c3f7d4	-6.1240025
15	0xc0842076	-4.1289625
16	0xc084e7b9	-4.1532865
17	0xc0ca093a	-6.3136263
18	0xc08380b8	-4.1094627
19	0xc0d7db40	-6.745514
20	0xc0bce7f2	-5.9033136
21	0xc0838a39	-4.110623
22	0xc08379d1	-4.10862
23	0xc0839643	-4.1120925
24	0xc0c4d2d7	-6.1507373
25	0xc0ca1229	-6.314717
26	0xc0bced29	-5.90395
27	0xc0ca08da	-6.3135805
28	0xc0853528	-4.162739
29	0xc0860ab9	-4.188809
30	0xc0bce844	-5.9033527
31	0xc0c0659e	-6.0124044
32	0xc0852b48	-4.1615334
33	0xc08383b3	-4.1098266
34	0xc0851793	-4.1591277
35	0xc0c7f24a	-6.2483263
36	0xc0ca4340	-6.320709
37	0xc0f12cc9	-7.536717
38	0xc0ca39be	-6.3195486
39	0xc0859272	-4.1741266
40	0xc08380e5	-4.109484
41	0xc0ca35cd	-6.3190675
42	0xc0c9ffb0	-6.312462
43	0xc0d573c7	-6.670383
44	0xc0bce2be	-5.9026785
45	0xc083b7c3	-4.116182
46	0xc0d18853	-6.547891
47	0xc0ca304d	-6.318396
48	0xc0d3474a	-6.6024523
49	0xc0ca0bec	-6.3139553
50	0xc0f5a94e	-7.676917
51	0xc0ca1ef7	-6.31628
52	0xc0ca1753	-6.315347
53	0xc0c29c7e	-6.081603
54	0xc0ca3e97	-6.3201404
55	0xc0c8744d	-6.264197
56	0xc0bf6b23	-5.981828
57	0xc083835b	-4.1097846
58	0xc0bce915	-5.9034524
59	0xc0ca0168	-6.3126717
60	0xc0bce398	-5.9027824
61	0xc0dee32f	-6.9652324
62	0xc083e291	-4.121407
63	0xc0ca37a1	-6.3192906

arith.constant1 f4 [32]
0	0xc08bd626	-4.369891
1	0xc0acf4e5	-5.4048944
2	0xc0acf411	-5.4047933
3	0xc0acf47b	-5.404844
4	0xc08cf445	-4.404818
5	0xc0acf4d1	-5.404885
6	0xc0acf046	-5.4043303
7	0xc0acf4e4	-5.404894
8	0xc089181b	-4.2841926
9	0xc083086a	-4.094777
10	0xc0acf4ca	-5.4048815
11	0xc0acf4e6	-5.404895
12	0xc0acf4b7	-5.4048724
13	0xc0acf4db	-5.4048896
14	0xc0acf46a	-5.4048357
15	0xc08c4630	-4.383568
16	0xc0acf46e	-5.4048376
17	0xc0acf4ca	-5.4048815
18	0xc08d3843	-4.413118
19	0xc08c13bb	-4.3774085
20	0xc08c1102	-4.377076
21	0xc0ace3c8	-5.4028053
22	0xc08aaee7	-4.3338504
23	0xc0acf3dc	-5.404768
24	0xc0acf3ac	-5.404745
25	0xc0acf483	-5.4048476
26	0xc0acf264	-5.4045887
27	0xc0acf4e2	-5.404893
28	0xc0acf384	-5.404726
29	0xc08957e2	-4.291978
30	0xc0acf45e	-5.40483
31	0xc0acf3b3	-5.4047484

arith.constant3 f4 [1, 32]
0	0xc0be9196	-5.9552717
1	0x40a0aaa0	5.0208282
2	0x40a8e66e	5.2781286
3	0x40a4e571	5.153008
4	0xc0bb4eba	-5.85336
5	0x40a0abb1	5.0209584
6	0x40ab883e	5.360381
7	0x40a1d72e	5.057517
8	0xc0c5af61	-6.1776586
9	0x40810b26	4.032611
10	0x40a1f207	5.0607944
11	0x40a0a4a8	5.0200996
12	0x40a3608c	5.1055355
13	0x40a335a6	5.100299
14	0x40a10835	5.032252
15	0xc0bd4e91	-5.9158406
16	0x40a3888f	5.1104198
17	0x40a5f533	5.1861815
18	0xc0b96e50	-5.794716
19	0xc0bd3e4e	-5.9138556
20	0xc0b2715c	-5.576338
21	0x40acbc26	5.3979673
22	0xc0bc82d3	-5.8909698
23	0x40aa08f8	5.313595
24	0x40abde05	5.370852
25	0x40a9de43	5.3083816
26	0x40ab80db	5.3594794
27	0x40a3843b	5.1098914
28	0x40aa4de7	5.3220096
29	0xc0c54f08	-6.1658974
30	0x40aa7938	5.327297
31	0x40a840d8	5.2579155

tfl.pseudo_qconst i1 [32, 64]
0	0x92	-110
1	0xa3	-93
2	0xa3	-93
3	0xbd	-67
4	0xba	-70
5	0x9e	-98
6	0xa9	-87
7	0x90	-112
8	0xaa	-86
9	0x90	-112
10	0xbb	-69
11	0xa1	-95
12	0x83	-125
13	0xa5	-91
14	0x8d	-115
15	0x83	-125
16	0xab	-85
17	0xb8	-72
18	0xad	-83
19	0x92	-110
20	0xa7	-89
21	0xac	-84
22	0xac	-84
23	0xac	-84
24	0x8e	-114
25	0xb8	-72
26	0xa8	-88
27	0xbb	-69
28	0x85	-123
29	0x90	-112
30	0xa4	-92
31	0x87	-121
32	0x8d	-115
33	0xa5	-91
34	0x8f	-113
35	0x96	-106
36	0xb9	-71
37	0xb8	-72
38	0xb7	-73
39	0x86	-122
40	0xab	-85
41	0xba	-70
42	0xb8	-72
43	0x9c	-100
44	0xa7	-89
45	0xaa	-86
46	0xa0	-96
47	0xb9	-71
48	0x98	-104
49	0xb4	-76
50	0x9d	-99
51	0xb7	-73
52	0xbe	-66
53	0x8c	-116
54	0xb7	-73
55	0x9c	-100
56	0x81	-127
57	0xa5	-91
58	0xa4	-92
59	0xb6	-74
60	0xa7	-89
61	0x96	-106
62	0xa7	-89
63	0xb7	-73
64	0x85	-123
65	0x89	-119
66	0x85	-123
67	0x89	-119
68	0x8a	-118
69	0x82	-126
70	0x8a	-118
71	0x83	-125
72	0x83	-125
73	0x8b	-117
74	0x8b	-117
75	0x88	-120
76	0x81	-127
77	0x82	-126
78	0x86	-122
79	0x86	-122
80	0x82	-126
81	0x89	-119
82	0x87	-121
83	0x88	-120
84	0x83	-125
85	0x8b	-117
86	0x88	-120
87	0x88	-120
88	0x83	-125
89	0x88	-120
90	0x82	-126
91	0x85	-123
92	0x81	-127
93	0x88	-120
94	0x89	-119
95	0x84	-124
96	0x86	-122
97	0x81	-127
98	0x86	-122
99	0x89	-119
100	0x85	-123
101	0x86	-122
102	0x86	-122
103	0x8a	-118
104	0x82	-126
105	0x8a	-118
106	0x84	-124
107	0x87	-121
108	0x88	-120
109	0x82	-126
110	0x88	-120
111	0x84	-124
112	0x85	-123
113	0x8c	-116
114	0x85	-123
115	0x82	-126
116	0x84	-124
117	0x84	-124
118	0x8a	-118
119	0x89	-119
120	0x8b	-117
121	0x84	-124
122	0x8a	-118
123	0x82	-126
124	0x89	-119
125	0x8b	-117
126	0x82	-126
127	0x89	-119
128	0x85	-123
129	0x84	-124
130	0x87	-121
131	0x87	-121
132	0x8a	-118
133	0x8b	-117
134	0x88	-120
135	0x8a	-118
136	0x8c	-116
137	0x86	-122
138	0x81	-127
139	0x86	-122
140	0x89	-119
141	0x88	-120
142	0x00	0
143	0x81	-127
144	0x87	-121
145	0x84	-124
146	0x89	-119
147	0x86	-122
148	0x82	-126
149	0x8c	-116
150	0x89	-119
151	0x87	-121
152	0x84	-124
153	0x8b	-117
154	0x83	-125
155	0x86	-122
156	0x84	-124
157	0x8b	-117
158	0x8a	-118
159	0x84	-124
160	0x00	0
161	0x85	-123
162	0x82	-126
163	0x8a	-118
164	0x82	-126
165	0x8c	-116
166	0x85	-123
167	0x85	-123
168	0x81	-127
169	0x84	-124
170	0x82	-126
171	0x83	-125
172	0x00	0
173	0x86	-122
174	0x84	-124
175	0x83	-125
176	0x8a	-118
177	0x88	-120
178	0x85	-123
179	0x8a	-118
180	0x82	-126
181	0x00	0
182	0x86	-122
183	0x8b	-117
184	0x81	-127
185	0x87	-121
186	0x85	-123
187	0x85	-123
188	0x82	-126
189	0x85	-123
190	0x89	-119
191	0x83	-125
192	0x83	-125
193	0x84	-124
194	0x84	-124
195	0x86	-122
196	0x86	-122
197	0x83	-125
198	0x87	-121
199	0x8a	-118
200	0x88	-120
201	0x88	-120
202	0x85	-123
203	0x85	-123
204	0x86	-122
205	0x85	-123
206	0x00	0
207	0x00	0
208	0x83	-125
209	0x8a	-118
210	0x88	-120
211	0x89	-119
212	0x88	-120
213	0x81	-127
214	0x86	-122
215	0x87	-121
216	0x85	-123
217	0x85	-123
218	0x8c	-116
219	0x87	-121
220	0x8c	-116
221	0x81	-127
222	0x8c	-116
223	0x88	-120
224	0x82	-126
225	0x88	-120
226	0x81	-127
227	0x87	-121
228	0x8b	-117
229	0x85	-123
230	0x88	-120
231	0x82	-126
232	0x82	-126
233	0x8a	-118
234	0x8c	-116
235	0x84	-124
236	0x84	-124
237	0x8a	-118
238	0x81	-127
239	0x81	-127
240	0x87	-121
241	0x86	-122
242	0x84	-124
243	0x89	-119
244	0x89	-119
245	0x00	0
246	0x83	-125
247	0x83	-125
248	0x83	-125
249	0x84	-124
250	0x8c	-116
251	0x8c	-116
252	0x86	-122
253	0x89	-119
254	0x8a	-118
255	0x8a	-118

sequential_2_1/dense_6_1/MatMul i1 [64, 17]
0	0x81	-127
1	0x9f	-97
2	0x9c	-100
3	0x99	-103
4	0x93	-109
5	0x8b	-117
6	0x9a	-102
7	0x00	0
8	0x8f	-113
9	0x97	-105
10	0x89	-119
11	0x99	-103
12	0x9c	-100
13	0x3b	59
14	0xc2	-62
15	0xb0	-80
16	0x52	82
17	0x98	-104
18	0x9b	-101
19	0x9c	-100
20	0x97	-105
21	0x84	-124
22	0x97	-105
23	0x81	-127
24	0x8d	-115
25	0x86	-122
26	0xa3	-93
27	0x85	-123
28	0x86	-122
29	0xa3	-93
30	0x61	97
31	0x5e	94
32	0x9a	-102
33	0x60	96
34	0xab	-85
35	0x88	-120
36	0xa6	-90
37	0xad	-83
38	0xa4	-92
39	0xa7	-89
40	0x92	-110
41	0x93	-109
42	0xac	-84
43	0x81	-127
44	0x93	-109
45	0x85	-123
46	0xab	-85
47	0x76	118
48	0x3d	61
49	0x82	-126
50	0x51	81
51	0x82	-126
52	0x8f	-113
53	0x98	-104
54	0x96	-106
55	0x28	40
56	0x81	-127
57	0x91	-111
58	0x99	-103
59	0x00	0
60	0x96	-106
61	0x81	-127
62	0x99	-103
63	0x94	-108
64	0xbc	-68
65	0xbc	-68
66	0x45	69
67	0x7d	125
68	0x92	-110
69	0xa5	-91
70	0xa4	-92
71	0xa1	-95
72	0x87	-121
73	0x90	-112
74	0x00	0
75	0x00	0
76	0x81	-127
77	0xa4	-92
78	0xad	-83
79	0xa1	-95
80	0xa4	-92
81	0xc3	-61
82	0xcb	-53
83	0x3d	61
84	0x6c	108
85	0x81	-127
86	0xac	-84
87	0xac	-84
88	0x00	0
89	0x4b	75
90	0x9a	-102
91	0xb3	-77
92	0x00	0
93	0x1c	28
94	0xa9	-87
95	0x92	-110
96	0xa6	-90
97	0xa6	-90
98	0xaa	-86
99	0xcd	-51
100	0x64	100
101	0xcd	-51
102	0x8c	-116
103	0x88	-120
104	0x8d	-115
105	0x8c	-116
106	0x85	-123
107	0x81	-127
108	0x8c	-116
109	0x8c	-116
110	0x8d	-115
111	0x8a	-118
112	0x89	-119
113	0x89	-119
114	0x89	-119
115	0x76	118
116	0x75	117
117	0x8a	-118
118	0x7e	126
119	0x97	-105
120	0x00	0
121	0xa4	-92
122	0x00	0
123	0x31	49
124	0x3e	62
125	0x00	0
126	0x00	0
127	0x2d	45
128	0x97	-105
129	0x6d	109
130	0x9f	-97
131	0x00	0
132	0xbe	-66
133	0x7f	127
134	0xb5	-75
135	0xb0	-80
136	0x83	-125
137	0x8e	-114
138	0x8a	-118
139	0x8f	-113
140	0xae	-82
141	0x73	115
142	0x6f	111
143	0x88	-120
144	0xa3	-93
145	0x8b	-117
146	0x8c	-116
147	0x92	-110
148	0x8f	-113
149	0x7f	127
150	0x55	85
151	0x58	88
152	0x58	88
153	0x81	-127
154	0x99	-103
155	0x8f	-113
156	0x9a	-102
157	0x2f	47
158	0x82	-126
159	0x95	-107
160	0x9b	-101
161	0x24	36
162	0x90	-112
163	0x82	-126
164	0x93	-109
165	0x98	-104
166	0x93	-109
167	0xc7	-57
168	0xaf	-81
169	0xc2	-62
170	0x9a	-102
171	0x00	0
172	0xa5	-91
173	0xa6	-90
174	0x81	-127
175	0x99	-103
176	0xaa	-86
177	0xa3	-93
178	0x81	-127
179	0xa5	-91
180	0x9a	-102
181	0xa9	-87
182	0xa5	-91
183	0x9b	-101
184	0xc6	-58
185	0x37	55
186	0x6a	106
187	0xa7	-89
188	0x98	-104
189	0xab	-85
190	0xac	-84
191	0xac	-84
192	0x92	-110
193	0x95	-107
194	0x93	-109
195	0xaa	-86
196	0x94	-108
197	0xa5	-91
198	0xaa	-86
199	0xa6	-90
200	0x7f	127
201	0x52	82
202	0xa9	-87
203	0x53	83
204	0xa7	-89
205	0x94	-108
206	0xac	-84
207	0xa7	-89
208	0x81	-127
209	0xa6	-90
210	0x95	-107
211	0x95	-107
212	0xae	-82
213	0x93	-109
214	0xad	-83
215	0xac	-84
216	0xae	-82
217	0x53	83
218	0x2c	44
219	0x53	83
220	0x7d	125
221	0xa7	-89
222	0xab	-85
223	0xaf	-81
224	0xaa	-86
225	0xaf	-81
226	0x8d	-115
227	0x93	-109
228	0x92	-110
229	0xa9	-87
230	0xa7	-89
231	0xa6	-90
232	0xaa	-86
233	0xab	-85
234	0x7a	122
235	0x00	0
236	0xae	-82
237	0x7f	127
238	0x81	-127
239	0x98	-104
240	0x8d	-115
241	0x91	-111
242	0xad	-83
243	0x85	-123
244	0x72	114
245	0x00	0
246	0x97	-105
247	0xac	-84
248	0x81	-127
249	0x67	103
250	0x97	-105
251	0x50	80
252	0xd6	-42
253	0xab	-85
254	0x5a	90
255	0xa2	-94
