Model Outputs/ModelV2/Third Model/third_quantized_modelV2.tflite (tflite, 6720 bytes, 5 tensors)

arith.constant f4 [64]
-0.056647655 -0.019839047 0.069020964 -0.099524714 -0.042623177 -0.09010967 0.20843232 -0.08229587
-0.05948891 -0.08763061 -0.15140843 -0.034408048 -0.09573198 -0.065100186 -0.020867933 -0.02054741
-0.07829216 -0.053741876 -0.034855254 0.052664082 -0.10511646 -0.02473063 -0.1654412 -0.09714163
-0.13256855 -0.04626539 -0.17380953 -0.033606548 -0.09799627 -0.1399171 -0.06366841 0.03855011
-0.10650293 -0.20147231 -0.1248323 0.073602535 -0.120822586 -0.22343414 -0.12683447 -0.0753808
-0.09310699 -0.08925228 -0.16233741 0.19798675 0.25141224 -0.31787813 -0.25842926 0.07568425
-0.120574296 0.22089517 -0.13015188 -0.01341506 -0.082294494 0.16037662 -0.21454518 -0.15016969
-0.15720583 -0.16638944 -0.062321108 -5.987869e-05 0.03382977 0.23332857 -0.15479182 -0.011561856
00000000: 5f07 68bd 7f85 a2bc dd5a 8d3d 9dd3 cbbd
00000010: a495 2ebd 6b8b b8bd 486f 553e bd8a a8bd
00000020: a5aa 73bd ad77 b3bd d00a 1bbe 74ef 0cbd
00000030: 210f c4bd 3f53 85bd 3af3 aabc 0b53 a8bc
00000040: a457 a0bd 7120 5cbd 62c4 0ebd 4bb6 573d
00000050: 4c47 d7bd e497 cabc 6b69 29be 31f2 c6bd
00000060: 0dc0 07be c780 3dbd 20fb 31be 05a7 09bd
00000070: 45b2 c8bd 6e46 0fbe 9564 82bd b8e6 1d3d
00000080: 351e dabd c24e 4ebe 14a8 ffbd edbc 963d
00000090: d571 f7bd ebcb 64be e5e0 01be 4061 9abd
000000a0: e1ae bebd e6c9 b6bd c73b 26be 0abd 4a3e
000000b0: 1bb9 803e ecc0 a2be d750 84be 5800 9b3d
000000c0: a8ef f6bd 5832 623e 8946 05be d7ca 5bbc
000000d0: 048a a8bd c539 243e bbb1 5bbe 15c6 19be
000000e0: 91fa 20be fe61 2abe 6b44 7fbd 4126 7bb8
000000f0: 1691 0a3d afed 6e3e bf81 1ebe f06d 3dbc

arith.constant1 f4 [32]
-0.062752455 0.1964113 -0.059081648 0.19570026 -0.072084785 -0.058700852 0.02688367 0.20563711
0.24640812 -0.07777535 -0.062089823 -0.0052562524 -0.11124714 -0.06096509 -0.054141454 -0.06924562
0.06520166 0.25166273 0.25411135 -0.068953134 -0.06659692 -0.09505064 0.11428778 -0.08173607
-0.020661116 -0.06177826 -0.056523815 0.014891693 -0.083304875 -0.082590945 0.08705164 0.23242699
00000000: 5c84 80bd 0b20 493e 99ff 71bd a665 483e
00000010: 30a1 93bd 4e70 70bd 243b dc3c 8992 523e
00000020: 6952 7c3e af48 9fbd e651 7ebd a43c acbb
00000030: 8ad5 e3bd 88b6 79bd 6ec3 5dbd a6d0 8dbd
00000040: 7388 853d f0d9 803e e21a 823e 4d37 8dbd
00000050: f763 88bd e9a9 c2bd b60f ea3d 3e65 a7bd
00000060: 8041 a9bc 330b 7dbd 8485 67bd 4afc 733c
00000070: bf9b aabd 7125 a9bd 2148 b23d 5701 6e3e

arith.constant3 f4 [1, 32]
-0.25578544 0.0 -0.22873135 0.0 -0.16503064 -0.24376152 0.34118393 0.0
0.19361047 -0.1720559 -0.10042638 0.17680812 0.0 0.0 -0.1436998 -0.26448533
0.0 0.12725459 0.13373975 0.0 0.0 0.0 0.19654292 -0.2515807
0.26996663 0.0 -0.25502515 0.0 -0.10518813 -0.14998478 0.0 0.146165
00000000: 4ff6 82be 0000 0000 8d38 6abe 0000 0000
00000010: cbfd 28be 9f9c 79be a9af ae3e 0000 0000
00000020: d341 463e 6c2f 30be 59ac cdbd 300d 353e
00000030: 0000 0000 0000 0000 0a26 13be 9f6a 87be
00000040: 0000 0000 074f 023e 13f3 083e 0000 0000
00000050: 0000 0000 0000 0000 8c42 493e 2fcf 80be
00000060: 1139 8a3e 0000 0000 a892 82be 0000 0000
00000070: e06c d7bd 9c95 19be 0000 0000 47ac 153e

tfl.pseudo_qconst i1 [32, 64]
0 -111 -80 -120 -54 0 -82 0
-101 0 0 0 56 0 -79 0
0 -127 -103 -115 0 -118 83 -68
-122 0 -103 0 -55 0 0 0
0 -69 0 -58 0 0 80 0
0 0 0 0 -107 0 54 0
56 0 46 -82 0 0 0 51
0 0 0 -102 -63 0 0 -126
0 105 -80 0 -78 113 80 73
-112 110 0 -100 -92 0 69 0
97 80 116 0 -80 107 -55 72
-67 0 0 0 113 0 -84 0
0 0 -81 0 0 -99 109 -96
0 63 77 0 127 0 0 0
0 90 0 0 0 0 0 107
-59 0 0 0 117 0 -59 0
0 0 49 -93 -127 0 0 0
0 -116 -49 -93 0 -109 0 0
-95 -89 0 0 0 0 -58 67
-45 -111 -70 -87 -64 0 0 0
-82 0 -82 -103 50 78 70 -100
81 78 0 0 -78 -79 54 0
0 73 54 -47 -66 -88 0 -57
-62 0 0 56 -54 -84 0 -110
0 0 47 0 0 -55 0 -61
-99 55 79 62 -41 41 -65 86
107 0 -72 0 -82 69 0 0
0 52 0 -67 0 0 -82 0
0 0 -57 59 0 -56 0 0
76 0 46 0 -101 -48 -110 0
0 0 -43 -127 0 0 -76 0
109 0 -93 82 89 0 -104 0
00000000: 0091 b088 ca00 ae00 9b00 0000 3800 b100
00000010: 0081 998d 008a 53bc 8600 9900 c900 0000
00000020: 00bb 00c6 0000 5000 0000 0000 9500 3600
00000030: 3800 2eae 0000 0033 0000 009a c100 0082
00000040: 0069 b000 b271 5049 906e 009c a400 4500
00000050: 6150 7400 b06b c948 bd00 0000 7100 ac00
00000060: 0000 af00 009d 6da0 003f 4d00 7f00 0000
00000070: 005a 0000 0000 006b c500 0000 7500 c500
00000080: 0000 31a3 8100 0000 008c cfa3 0093 0000
00000090: a1a7 0000 0000 c643 d391 baa9 c000 0000
000000a0: ae00 ae99 324e 469c 514e 0000 b2b1 3600
000000b0: 0049 36d1 bea8 00c7 c200 0038 caac 0092
000000c0: 0000 2f00 00c9 00c3 9d37 4f3e d729 bf56
000000d0: 6b00 b800 ae45 0000 0034 00bd 0000 ae00
000000e0: 0000 c73b 00c8 0000 4c00 2e00 9bd0 9200
000000f0: 0000 d581 0000 b400 6d00 a352 5900 9800

sequential_1/dense_1/MatMul i1 [64, 17]
-43 0 -127 0 -67 107 -68 -83
58 0 0 51 0 0 0 0
0 0 -38 0 -42 0 0 47
60 -84 -127 -85 0 48 0 -41
0 0 127 70 0 84 80 58
75 -43 0 -94 0 0 0 0
0 0 0 0 -121 0 -127 0
0 -115 -105 -123 72 0 0 0
0 0 0 0 72 0 -127 0
-93 0 -54 -71 -102 0 0 0
0 0 0 0 0 0 0 0
-109 -97 -127 0 -71 0 -49 -65
-94 55 0 0 0 0 79 64
60 0 0 51 49 127 75 106
120 48 121 42 0 0 0 0
0 -115 0 -69 -57 -127 -122 -84
-111 0 -53 0 40 0 -45 0
-64 -64 0 0 -56 -70 73 -123
-127 -46 0 -113 0 -60 0 0
0 0 0 -78 83 -105 71 59
-57 57 -127 -112 0 0 44 0
0 -56 -47 -35 0 34 -57 -74
0 0 -71 0 -127 -55 -87 -59
0 0 0 0 0 0 82 59
46 0 0 -110 -127 -73 88 68
57 0 59 0 0 0 127 -120
0 -104 0 0 0 84 -85 0
82 0 0 0 0 -100 67 -67
56 0 0 -104 49 -62 75 -127
0 -69 0 0 37 0 -58 -37
69 0 0 0 0 0 127 -50
-64 -41 -117 0 0 0 0 -85
00000000: d500 8100 bd6b bcad 3a00 0033 0000 0000
00000010: 0000 da00 d600 002f 3cac 81ab 0030 00d7
00000020: 0000 7f46 0054 503a 4bd5 00a2 0000 0000
00000030: 0000 0000 8700 8100 008d 9785 4800 0000
00000040: 0000 0000 4800 8100 a300 cab9 9a00 0000
00000050: 0000 0000 0000 0000 939f 8100 b900 cfbf
00000060: a237 0000 0000 4f40 3c00 0033 317f 4b6a
00000070: 7830 792a 0000 0000 008d 00bb c781 86ac
00000080: 9100 cb00 2800 d300 c0c0 0000 c8ba 4985
00000090: 81d2 008f 00c4 0000 0000 00b2 5397 473b
000000a0: c739 8190 0000 2c00 00c8 d1dd 0022 c7b6
000000b0: 0000 b900 81c9 a9c5 0000 0000 0000 523b
000000c0: 2e00 0092 81b7 5844 3900 3b00 0000 7f88
000000d0: 0098 0000 0054 ab00 5200 0000 009c 43bd
000000e0: 3800 0098 31c2 4b81 00bb 0000 2500 c6db
000000f0: 4500 0000 0000 7fce c0d7 8b00 0000 00ab
