Model Outputs/Test_Models/Test_Model3/third_quantized_model.tflite (tflite, 6752 bytes, 5 tensors)

arith.constant f4 [64]
-0.0042778742 -1.4882268 -0.6874838 -0.7598994 -1.2066436 -1.1091546 -0.3023493 -1.8323249
-0.08481178 -0.47390524 0.35232338 -0.5159164 0.39713162 -1.5192821 -1.5398635 -0.39086303
-0.12424786 -0.023832541 -0.10384113 0.9772823 0.47691438 -0.44211957 -0.028765481 -1.4011658
0.88540006 -1.8374091 -0.2940718 0.07387691 -0.74709046 1.1571238 -0.052030224 -1.0563089
0.10185717 -0.27968264 -0.4875913 -1.037089 -1.0653018 -2.0124946 0.66671777 0.07853064
0.349034 -1.1033266 -0.10500739 -0.19973637 -0.4416119 0.5922382 -1.4586694 0.6174377
-0.102756396 -0.2309271 0.17636614 -1.530521 -0.60498035 0.71506804 -0.03195268 -1.7705739
-0.2709441 -0.20068723 -0.39908364 -0.82481414 -1.5577364 -0.10269677 -1.0847719 -0.49731502
00000000: 692d 8cbb 377e bebf f0fe 2fbf c488 42bf
00000010: 4c73 9abf c7f8 8dbf 87cd 9abe 9f89 eabf
00000020: ccb1 adbd b5a3 f2be bb63 b43e 1913 04bf
00000030: d654 cb3e d677 c2bf 3f1a c5bf 331f c8be
00000040: a975 febd 763c c3bc a9aa d4bd 2c2f 7a3f
00000050: 1f2e f43e 7f5d e2be 96a5 ebbc 6759 b3bf
00000060: 94a9 623f 3930 ebbf 9490 96be c74c 973d
00000070: 5241 3fbf a21c 943f a51d 55bd 2135 87bf
00000080: 7e9a d03d 9032 8fbe 91a5 f9be 55bf 84bf
00000090: cf5b 88bf b6cc 00c0 04ae 2a3f acd4 a03d
000000a0: 96b4 b23e ce39 8dbf 1d0e d7bd b187 4cbe
000000b0: f41a e2be ec9c 173f aeb5 babf 6610 1e3f
000000c0: f271 d2bd 2778 6cbe 5399 343e 1de8 c3bf
000000d0: fedf 1abf b30e 373f d0e0 02bd 2aa2 e2bf
000000e0: 2fb9 8abe f480 4dbe b154 ccbe 0527 53bf
000000f0: e863 c7bf af52 d2bd ced9 8abf 13a0 febe

arith.constant1 f4 [32]
1.9309859 -0.18772277 -0.80423117 -3.0425682 -0.20537348 -0.23278669 -0.2439426 -0.085969314
-0.084308654 -0.12994361 -0.19189759 2.7279987 -0.15873975 -2.6638012 -3.168575 -1.5678173
-0.20252907 -0.33201054 -0.7910721 -1.9267813 -1.4096214 -1.3218625 -1.0844426 -0.21827364
-0.18661962 -0.13806993 -2.0712092 -1.2076044 -0.20430791 1.5811707 -0.06438435 -0.34727356
00000000: 8c2a f73f 663a 40be 18e2 4dbf 70b9 42c0
00000010: 6d4d 52be a25f 6ebe 17cc 79be ae10 b0bd
00000020: 04aa acbd f00f 05be cd80 44be 8897 2e40
00000030: ac8c 22be b87b 2ac0 efc9 4ac0 3dae c8bf
00000040: c863 4fbe 49fd a9be b383 4abf c5a0 f6bf
00000050: 796e b4bf ca32 a9bf 04cf 8abf 2083 5fbe
00000060: 3719 3fbe 3462 0dbe b18e 04c0 c892 9abf
00000070: 1836 51be cd63 ca3f f1db 83bd d7cd b1be

arith.constant3 f4 [1, 32]
0.4223379 -0.07972842 -1.5575128 1.3377904 0.11893097 -0.14605197 0.0 -0.1964978
-0.019343723 0.19224398 0.13239647 1.5373684 -0.0964722 0.18759018 0.16921373 -1.6845425
-0.2956633 0.046214152 0.576237 0.2819321 0.8077998 0.73031217 0.27657792 1.03269
0.052864447 0.1592988 0.40917414 -1.16766 0.117200546 0.7429478 -0.2715673 0.18454719
00000000: ac3c d83e a748 a3bd 945c c7bf b73c ab3f
00000010: 1592 f33d a68e 15be 0000 0000 b836 49be
00000020: ba76 9ebc 9bdb 443e f192 073e 7dc8 c43f
00000030: 3793 c5bd a417 403e 5d46 2d3e 179f d7bf
00000040: 2e61 97be 0d4b 3d3d 4584 133f 6759 903e
00000050: f8cb 4e3f bdf5 3a3f 9f9b 8d3e 302f 843f
00000060: 6488 583d 3a1f 233e 467f d13e e275 95bf
00000070: d706 f03d d431 3e3f df0a 8bbe f0f9 3c3e

tfl.pseudo_qconst i1 [32, 64]
11 -69 -14 12 -7 6 -3 13
24 2 -30 21 -11 -127 -30 -15
18 4 -20 9 -1 11 24 42
-19 -12 -8 -56 13 -17 4 -14
9 0 7 12 -8 0 17 2
27 37 4 -18 -26 3 -12 4
3 5 14 10 -4 -2 2 4
-3 -41 0 -5 -4 2 12 16
-72 -24 -7 -49 -83 -30 -59 7
-29 -11 -46 -17 11 -127 -45 -47
31 -51 -28 -107 -11 -51 -30 34
-58 -80 -46 -17 -101 -58 -124 -62
-19 -65 -29 -61 -36 -58 3 -20
-11 10 -97 12 -74 -45 3 -4
-96 -18 -108 -29 -49 -2 -23 -95
6 -93 -59 -1 -47 -98 -8 -75
3 -29 -11 8 8 -41 -6 25
10 5 21 10 -4 -11 5 -29
20 1 3 3 -19 -2 -21 7
-108 -3 -32 16 -10 16 6 1
17 -28 -26 -10 -9 -6 -25 -12
-11 29 7 -6 23 -71 28 0
-63 9 -57 17 6 -10 10 -16
10 -127 -84 10 -94 6 -127 -24
6 -29 7 -113 14 -127 -13 2
4 -11 -6 8 0 7 15 2
-3 -15 -7 5 13 -12 25 19
21 11 -5 -5 2 -29 3 -3
0 0 8 -23 -8 19 12 0
10 4 15 -5 1 -1 -22 3
8 0 -74 19 6 1 0 -4
23 -12 -32 -31 -37 -3 -15 -73
00000000: 0bbb f20c f906 fd0d 1802 e215 f581 e2f1
00000010: 1204 ec09 ff0b 182a edf4 f8c8 0def 04f2
00000020: 0900 070c f800 1102 1b25 04ee e603 f404
00000030: 0305 0e0a fcfe 0204 fdd7 00fb fc02 0c10
00000040: b8e8 f9cf ade2 c507 e3f5 d2ef 0b81 d3d1
00000050: 1fcd e495 f5cd e222 c6b0 d2ef 9bc6 84c2
00000060: edbf e3c3 dcc6 03ec f50a 9f0c b6d3 03fc
00000070: a0ee 94e3 cffe e9a1 06a3 c5ff d19e f8b5
00000080: 03e3 f508 08d7 fa19 0a05 150a fcf5 05e3
00000090: 1401 0303 edfe eb07 94fd e010 f610 0601
000000a0: 11e4 e6f6 f7fa e7f4 f51d 07fa 17b9 1c00
000000b0: c109 c711 06f6 0af0 0a81 ac0a a206 81e8
000000c0: 06e3 078f 0e81 f302 04f5 fa08 0007 0f02
000000d0: fdf1 f905 0df4 1913 150b fbfb 02e3 03fd
000000e0: 0000 08e9 f813 0c00 0a04 0ffb 01ff ea03
000000f0: 0800 b613 0601 00fc 17f4 e0e1 dbfd f1b7

sequential_1_1/dense_3_1/MatMul i1 [64, 17]
-6 -51 -101 100 70 -64 -19 -127
4 -3 2 3 46 -42 -64 99
48 -42 -8 64 49 -4 -116 -67
-127 -10 -10 -10 -10 -69 -102 115
-104 46 -21 5 -127 -52 -89 43
78 -96 -2 -2 -2 -1 -8 19
18 91 15 -13 35 44 -107 -69
-52 -127 -84 -4 -3 -4 -4 -27
-60 -8 -2 -39 -16 39 -57 27
-38 -96 -57 -127 -2 -2 -1 -1
-47 -43 21 25 60 -13 -127 34
-35 -8 -31 18 -11 -16 -17 -16
-16 50 -25 -41 -15 -34 -6 -18
-127 19 8 24 -35 34 -4 -4
-2 -1 11 -78 -89 45 69 -36
-123 10 -127 -97 -21 -113 -1 1
2 2 2 -54 102 5 -23 -23
1 58 19 -50 48 -103 -1 41
4 5 5 2 -10 127 37 -6
-25 -9 -44 63 -127 -4 -63 2
27 -4 -3 -3 -3 -12 -51 -8
119 90 5 28 -21 11 -51 32
-19 -127 4 4 4 4 1 18
20 18 -73 -8 -93 47 14 38
-127 -23 -84 -8 -9 -9 -9 15
27 -81 91 26 10 -30 35 2
65 1 -8 3 18 16 19 19
-37 127 -14 -103 -23 -28 -127 -65
-3 -18 -113 34 32 -10 -9 -10
-10 -43 111 32 10 -21 -39 5
-113 5 -127 1 60 -123 -21 -20
-19 -20 6 123 -62 13 -52 -4
00000000: facd 9b64 46c0 ed81 04fd 0203 2ed6 c063
00000010: 30d6 f840 31fc 8cbd 81f6 f6f6 f6bb 9a73
00000020: 982e eb05 81cc a72b 4ea0 fefe feff f813
00000030: 125b 0ff3 232c 95bb cc81 acfc fdfc fce5
00000040: c4f8 fed9 f027 c71b daa0 c781 fefe ffff
00000050: d1d5 1519 3cf3 8122 ddf8 e112 f5f0 eff0
00000060: f032 e7d7 f1de faee 8113 0818 dd22 fcfc
00000070: feff 0bb2 a72d 45dc 850a 819f eb8f ff01
00000080: 0202 02ca 6605 e9e9 013a 13ce 3099 ff29
00000090: 0405 0502 f67f 25fa e7f7 d43f 81fc c102
000000a0: 1bfc fdfd fdf4 cdf8 775a 051c eb0b cd20
000000b0: ed81 0404 0404 0112 1412 b7f8 a32f 0e26
000000c0: 81e9 acf8 f7f7 f70f 1baf 5b1a 0ae2 2302
000000d0: 4101 f803 1210 1313 db7f f299 e9e4 81bf
000000e0: fdee 8f22 20f6 f7f6 f6d5 6f20 0aeb d905
000000f0: 8f05 8101 3c85 ebec edec 067b c20d ccfc
