Model Outputs/ModelV1/First Model/first_quantized_model.tflite (tflite, 6720 bytes, 5 tensors)

arith.constant f4 [64]
-0.08389917 0.15097715 0.12282583 0.21913509 0.20247778 0.09091906 0.15730906 0.14035429
0.08861355 -0.0755892 0.15425119 0.20099437 0.048513502 0.21066129 0.08854727 0.15396033
0.15885013 0.054840427 0.17389795 0.05275833 0.07869998 0.1722097 0.016096655 0.22143397
0.19600955 0.078378305 0.11734002 0.20679095 -0.06356417 0.045669064 0.24260387 0.12540859
0.14474362 0.15329744 0.17828429 -0.013041318 -0.021759344 0.17528531 0.070907384 0.06676914
0.17272931 0.31762502 0.041517075 0.019336399 0.15541317 0.21153858 0.12998289 -0.17933767
0.065080784 -0.017245494 0.17595935 -0.09315795 0.26063457 0.047379177 0.34935254 0.06670337
0.14144829 0.13664503 0.18444164 -0.08456345 0.14566043 0.1632846 0.101679884 0.20772672
00000000: 54d3 abbd c199 1a3e 1c8c fb3d f364 603e
00000010: 5656 4f3e c633 ba3d a015 213e 09b9 0f3e
00000020: 057b b53d 83ce 9abd 06f4 1d3e 78d1 4d3e
00000030: 18b6 463d 98b7 573e 4558 b53d c7a7 1d3e
00000040: 9ca9 223e 5ba0 603d 4e12 323e 1e19 583d
00000050: 752d a13d bd57 303e 22dd 833c 96bf 623e
00000060: bab6 483e ce84 a03d f74f f03d 02c1 533e
00000070: ee2d 82bd 7c0f 3b3d 266d 783e 1c6b 003e
00000080: ac37 143e 01fa 1c3e 2890 363e 41ab 55bc
00000090: a740 b2bc fe7d 333e e437 913d 42be 883d
000000a0: f4df 303e bf9f a23e cf0d 2a3d 5e67 9e3c
000000b0: a124 1f3e 929d 583e 3c1a 053e 4ba4 37be
000000c0: 1349 853d 6c46 8dbc b02e 343e 98c9 bebd
000000d0: e571 853e ab10 423d 56de b23e c79b 883d
000000e0: d2d7 103e adec 0b3e 45de 3c3e 9a2f adbd
000000f0: 0228 153e 1434 273e 8b3d d03d 50b6 543e

arith.constant1 f4 [32]
-0.05741313 -0.06383871 -0.024056414 0.14235945 -0.06702462 0.07352961 -0.027562387 0.063198164
0.25052238 -0.064784035 -0.06427429 -0.051658086 -0.065498434 -0.17169285 -0.066850446 -0.06745073
0.07672448 0.26379973 -0.07260236 -0.037040178 -0.07477476 0.09079145 0.0 -0.046952922
-0.036222685 -0.039301407 -0.029016638 -0.044693954 -0.019480426 -0.039698265 -0.037613798 0.1468129
00000000: 082a 6bbd dfbd 82bd f511 c5bc adc6 113e
00000010: 3444 89bd b196 963d 84ca e1bc 0a6e 813d
00000020: 7844 803e 7ead 84bd 3da2 83bd 6e97 53bd
00000030: 0b24 86bd 40d0 2fbe e3e8 88bd 9c23 8abd
00000040: b921 9d3d c210 873e 8cb0 94bd 71b7 17bd
00000050: 8223 99bd def0 b93d 0000 0000 b551 40bd
00000060: 3d5e 14bd 83fa 20bd 4db4 edbc 0211 37bd
00000070: 6a95 9fbc a69a 22bd ed10 1abd 1f56 163e

arith.constant3 f4 [1, 32]
0.59982085 0.7711981 0.5237733 -1.5172039 0.70536345 -2.179663 0.38951883 -1.3168278
-2.4957936 0.56071913 0.70503926 0.0 0.5043794 -1.0759238 -1.4618018 0.617308
-1.6202391 -1.2172253 0.4942754 0.0 0.6821723 -1.8751215 0.0 0.0
0.0 0.7105563 0.0 0.44896778 -0.37110302 0.0 0.43538898 -1.2936504
00000000: dc8d 193f 3d6d 453f 0216 063f bd33 c2bf
00000010: b392 343f 997f 0bc0 036f c73e d08d a8bf
00000020: 15bb 1fc0 4a8b 0f3f 747d 343f 0000 0000
00000030: 021f 013f dfb7 89bf 521c bbbf e607 1e3f
00000040: ff63 cfbf 0ace 9bbf aa11 fd3e 0000 0000
00000050: d8a2 2e3f fb03 f0bf 0000 0000 0000 0000
00000060: 0000 0000 05e7 353f 0000 0000 1bdf e53e
00000070: 3701 bebe 0000 0000 4eeb de3e 5696 a5bf

tfl.pseudo_qconst i1 [32, 64]
0 57 0 0 65 0 0 77
0 63 59 0 0 0 56 0
0 65 0 0 0 0 0 0
67 -116 103 0 -101 0 -77 0
53 0 0 -90 0 0 0 0
0 0 0 69 55 0 78 -127
0 0 0 53 0 0 0 0
0 0 79 0 0 0 0 75
53 0 0 0 0 0 0 91
0 0 0 0 0 51 111 0
0 64 0 0 0 63 0 96
72 -126 84 0 -118 0 -69 0
56 0 0 -119 0 0 89 0
0 0 0 55 0 0 0 -127
0 0 0 0 0 0 0 0
0 0 84 0 0 0 51 0
67 0 0 67 69 64 0 74
0 0 0 0 0 76 97 0
77 0 0 0 0 78 0 63
103 -111 66 63 -97 0 0 0
84 0 0 -68 0 0 80 0
0 0 0 0 67 0 0 -127
0 84 0 99 0 0 0 0
0 0 61 0 0 0 0 82
50 -72 0 -74 0 43 0 -54
73 0 -93 -64 0 0 -73 -79
-91 67 0 72 0 0 0 82
73 102 -48 0 82 -46 76 0
0 0 0 0 51 -83 -55 47
-49 72 0 0 50 -47 0 56
0 -127 0 -50 0 0 -84 0
0 -51 0 0 53 0 0 -47
00000000: 0039 0000 4100 004d 003f 3b00 0000 3800
00000010: 0041 0000 0000 0000 438c 6700 9b00 b300
00000020: 3500 00a6 0000 0000 0000 0045 3700 4e81
00000030: 0000 0035 0000 0000 0000 4f00 0000 004b
00000040: 3500 0000 0000 005b 0000 0000 0033 6f00
00000050: 0040 0000 003f 0060 4882 5400 8a00 bb00
00000060: 3800 0089 0000 5900 0000 0037 0000 0081
00000070: 0000 0000 0000 0000 0000 5400 0000 3300
00000080: 4300 0043 4540 004a 0000 0000 004c 6100
00000090: 4d00 0000 004e 003f 6791 423f 9f00 0000
000000a0: 5400 00bc 0000 5000 0000 0000 4300 0081
000000b0: 0054 0063 0000 0000 0000 3d00 0000 0052
000000c0: 32b8 00b6 002b 00ca 4900 a3c0 0000 b7b1
000000d0: a543 0048 0000 0052 4966 d000 52d2 4c00
000000e0: 0000 0000 33ad c92f cf48 0000 32d1 0038
000000f0: 0081 00ce 0000 ac00 00cd 0000 3500 00d1

sequential_1/dense_1/MatMul i1 [64, 17]
0 -127 0 54 0 0 -117 -56
0 0 0 0 0 -76 0 0
0 0 99 0 127 0 0 0
-107 0 0 0 0 -99 0 -72
115 0 0 0 0 127 0 0
0 0 0 0 0 0 0 0
0 0 0 0 0 0 96 127
106 0 -116 0 77 0 0 0
0 0 0 0 0 76 0 0
0 110 -124 -90 0 0 0 0
63 0 0 0 127 0 -63 -88
0 -68 117 75 0 0 0 0
0 -92 0 127 0 0 0 -56
0 61 0 0 -89 0 0 0
0 0 0 -52 -127 0 -82 0
120 0 -91 80 -68 0 0 0
0 0 0 0 126 127 -71 0
0 -96 -116 127 0 0 0 0
0 0 0 0 0 -77 -83 -125
0 0 0 0 0 -47 0 -127
0 0 0 0 0 -78 -49 39
67 -62 0 0 -67 97 0 111
-91 0 0 0 0 0 -82 0
100 0 127 66 0 95 0 83
0 0 0 0 0 0 0 0
0 127 0 0 0 0 95 0
127 109 0 0 0 0 0 0
0 92 0 0 0 0 0 58
-85 83 104 -127 0 0 0 0
0 64 59 0 -54 71 0 -50
0 -49 0 57 57 0 0 0
0 0 0 0 0 -127 0 0
00000000: 0081 0036 0000 8bc8 0000 0000 00b4 0000
00000010: 0000 6300 7f00 0000 9500 0000 009d 00b8
00000020: 7300 0000 007f 0000 0000 0000 0000 0000
00000030: 0000 0000 0000 607f 6a00 8c00 4d00 0000
00000040: 0000 0000 004c 0000 006e 84a6 0000 0000
00000050: 3f00 0000 7f00 c1a8 00bc 754b 0000 0000
00000060: 00a4 007f 0000 00c8 003d 0000 a700 0000
00000070: 0000 00cc 8100 ae00 7800 a550 bc00 0000
00000080: 0000 0000 7e7f b900 00a0 8c7f 0000 0000
00000090: 0000 0000 00b3 ad83 0000 0000 00d1 0081
000000a0: 0000 0000 00b2 cf27 43c2 0000 bd61 006f
000000b0: a500 0000 0000 ae00 6400 7f42 005f 0053
000000c0: 0000 0000 0000 0000 007f 0000 0000 5f00
000000d0: 7f6d 0000 0000 0000 005c 0000 0000 003a
000000e0: ab53 6881 0000 0000 0040 3b00 ca47 00ce
000000f0: 00cf 0039 3900 0000 0000 0000 0081 0000
