Model Outputs/ModelV2/First Model/first_quantized_modelV2.tflite (tflite, 6720 bytes, 5 tensors)

arith.constant f4 [64]
0	0xbe0064c3	-0.12538438
1	0xbdf7505d	-0.12075875
2	0xbe035b3a	-0.12827769
3	0x3ee15c9b	0.44015965
4	0xbdd1e4be	-0.10248707
5	0xbe295316	-0.16535601
6	0xbd8d1296	-0.068883106
7	0xbe22f153	-0.1591237
8	0xbdf88615	-0.12134949
9	0xbdfc594c	-0.123217195
10	0xbe15cf1f	-0.14629792
11	0xbe1a67de	-0.15078685
12	0xbd93b163	-0.07211568
13	0xbe2d8c74	-0.1694811
14	0xbe142da3	-0.14470534
15	0xbe33c553	-0.17555742
16	0xbe23ae4b	-0.15984456
17	0xbe8fdf5d	-0.281001
18	0xbe312fd2	-0.17303398
19	0xbe3e468d	-0.185816
20	0xbdb89a67	-0.09013825
21	0xbdd930d4	-0.10605016
22	0xbe06121a	-0.13092843
23	0xbdcecd91	-0.100978024
24	0xbd5f3ef0	-0.05450338
25	0xbd99795b	-0.0749385
26	0xbd9627bc	-0.073317975
27	0xbafc9bf4	-0.0019272552
28	0xbe08cf34	-0.13360292
29	0xbdf86cdd	-0.12130139
30	0xbe7846e0	-0.24245787
31	0xbe0ee0b0	-0.13952899
32	0x3e65a91c	0.22427791
33	0xbe15be28	-0.1462332
34	0xbded503e	-0.115875706
35	0xbe37ba05	-0.17942055
36	0xbdbf9e7b	-0.093563996
37	0xbdb4a477	-0.08820432
38	0x3e51db54	0.20493823
39	0xbe960e59	-0.2930782
40	0xbe5b5994	-0.2142089
41	0xbe123ee8	-0.1428181
42	0xbdda0aca	-0.10646589
43	0xbd62bf71	-0.055358354
44	0xbe569666	-0.2095581
45	0xbe1398d1	-0.14413764
46	0xbe0f1982	-0.13974574
47	0xbe2dbb42	-0.16965964
48	0xbe11481a	-0.14187661
49	0xbda43c5c	-0.08019325
50	0xbe2c4a14	-0.16825134
51	0xbe1a5d08	-0.15074551
52	0xbe61994a	-0.22031131
53	0xbe26b1c8	-0.16278756
54	0xbdeb113c	-0.114778966
55	0xbe783110	-0.24237466
56	0xbddc473f	-0.107557766
57	0xbdb1ce48	-0.08681923
58	0xbde075c8	-0.10959965
59	0xbe52ca81	-0.20585062
60	0xbdd5fe46	-0.104488894
61	0xbe88af87	-0.26696417
62	0xbdfb34d1	-0.12265933
63	0xbd698322	-0.057009824

arith.constant1 f4 [32]
0	0x3e6a637f	0.22889517
1	0xbd65ce0a	-0.056104697
2	0xbdcf437e	-0.10120295
3	0xbd82b4ac	-0.06382117
4	0xbe2acfbc	-0.16680807
5	0xbde244cb	-0.110482775
6	0xbdb1187d	-0.08647249
7	0xbcf51953	-0.029919302
8	0xbd63718e	-0.055528216
9	0xbd475880	-0.048668385
10	0xbdc7f32d	-0.09763179
11	0xbd59e263	-0.053194415
12	0xbe0f590e	-0.13998815
13	0x3ee7333f	0.45156285
14	0xbe17631e	-0.14783904
15	0x3ebd7877	0.3700597
16	0xbdb64d4e	-0.089014634
17	0x3d4d6d6c	0.05015318
18	0x3e80932a	0.25112277
19	0x3ec56ced	0.38559666
20	0xbcd0918e	-0.02546003
21	0xbdd1d5f2	-0.10245885
22	0xbe27f694	-0.16402656
23	0x3eece8d9	0.462714
24	0xbd9d6d1d	-0.07686827
25	0xbd8c3662	-0.0684631
26	0xbd9c1e9f	-0.07623028
27	0x3d5fe69b	0.054663282
28	0x3d31b8ac	0.043389007
29	0xbe29934d	-0.16560097
30	0xbd401396	-0.04689368
31	0xbd1e826c	-0.0386986

arith.constant3 f4 [1, 32]
0	0x00000000	0.0
1	0x00000000	0.0
2	0x00000000	0.0
3	0xbec0f3ef	-0.37686107
4	0x00000000	0.0
5	0x00000000	0.0
6	0x00000000	0.0
7	0x00000000	0.0
8	0x00000000	0.0
9	0x00000000	0.0
10	0x00000000	0.0
11	0x00000000	0.0
12	0x00000000	0.0
13	0x00000000	0.0
14	0x00000000	0.0
15	0x00000000	0.0
16	0x00000000	0.0
17	0x00000000	0.0
18	0x00000000	0.0
19	0x00000000	0.0
20	0x00000000	0.0
21	0x00000000	0.0
22	0x00000000	0.0
23	0x00000000	0.0
24	0x00000000	0.0
25	0xbea12adf	-0.3147802
26	0x00000000	0.0
27	0x00000000	0.0
28	0x00000000	0.0
29	0x00000000	0.0
30	0x00000000	0.0
31	0x00000000	0.0

tfl.pseudo_qconst i1 [32, 64]
0	0x00	0
1	0x00	0
2	0x00	0
3	0x00	0
4	0x00	0
5	0x00	0
6	0x00	0
7	0x00	0
8	0x00	0
9	0x00	0
10	0x00	0
11	0x00	0
12	0x00	0
13	0x00	0
14	0x00	0
15	0x00	0
16	0x00	0
17	0x00	0
18	0x00	0
19	0x00	0
20	0x00	0
21	0x00	0
22	0x00	0
23	0x00	0
24	0x00	0
25	0x00	0
26	0x00	0
27	0x00	0
28	0x00	0
29	0x00	0
30	0x00	0
31	0x00	0
32	0x00	0
33	0x00	0
34	0x00	0
35	0x00	0
36	0x00	0
37	0x00	0
38	0x00	0
39	0x00	0
40	0x00	0
41	0x00	0
42	0x00	0
43	0x00	0
44	0x00	0
45	0x00	0
46	0x00	0
47	0x00	0
48	0x00	0
49	0x00	0
50	0x00	0
51	0x00	0
52	0x00	0
53	0x00	0
54	0x00	0
55	0x00	0
56	0x00	0
57	0x00	0
58	0x00	0
59	0x00	0
60	0x00	0
61	0x00	0
62	0x00	0
63	0x00	0
64	0x00	0
65	0x00	0
66	0x00	0
67	0x81	-127
68	0x00	0
69	0x00	0
70	0x00	0
71	0x00	0
72	0x00	0
73	0x00	0
74	0x00	0
75	0x00	0
76	0x00	0
77	0x00	0
78	0x00	0
79	0x00	0
80	0x00	0
81	0x00	0
82	0x00	0
83	0x00	0
84	0x00	0
85	0x00	0
86	0x00	0
87	0x00	0
88	0x00	0
89	0x00	0
90	0x00	0
91	0x00	0
92	0x00	0
93	0x00	0
94	0x00	0
95	0x00	0
96	0x00	0
97	0x00	0
98	0x00	0
99	0x00	0
100	0x00	0
101	0x00	0
102	0x00	0
103	0x00	0
104	0x00	0
105	0x00	0
106	0x00	0
107	0x00	0
108	0x00	0
109	0x00	0
110	0x00	0
111	0x00	0
112	0x00	0
113	0x00	0
114	0x00	0
115	0x00	0
116	0x00	0
117	0x00	0
118	0x00	0
119	0x00	0
120	0x00	0
121	0x00	0
122	0x00	0
123	0x00	0
124	0x00	0
125	0x00	0
126	0x00	0
127	0x00	0
128	0x8d	-115
129	0x00	0
130	0x00	0
131	0x00	0
132	0x00	0
133	0x00	0
134	0x00	0
135	0x00	0
136	0x00	0
137	0x00	0
138	0x00	0
139	0x00	0
140	0x00	0
141	0x00	0
142	0x00	0
143	0x00	0
144	0x00	0
145	0x00	0
146	0x00	0
147	0x00	0
148	0x00	0
149	0x00	0
150	0x00	0
151	0x00	0
152	0x00	0
153	0x00	0
154	0x00	0
155	0x00	0
156	0x99	-103
157	0x00	0
158	0x00	0
159	0x00	0
160	0x00	0
161	0x00	0
162	0x00	0
163	0x00	0
164	0x00	0
165	0x00	0
166	0x00	0
167	0x00	0
168	0x00	0
169	0x00	0
170	0x00	0
171	0x94	-108
172	0x00	0
173	0x00	0
174	0x00	0
175	0x00	0
176	0x00	0
177	0x81	-127
178	0x00	0
179	0x00	0
180	0x00	0
181	0x00	0
182	0x00	0
183	0x00	0
184	0x00	0
185	0x00	0
186	0x00	0
187	0x00	0
188	0x00	0
189	0x00	0
190	0x00	0
191	0x00	0
192	0x00	0
193	0x00	0
194	0x00	0
195	0x00	0
196	0x00	0
197	0x00	0
198	0x00	0
199	0x00	0
200	0x00	0
201	0x00	0
202	0x00	0
203	0x00	0
204	0x00	0
205	0x00	0
206	0x00	0
207	0x00	0
208	0x00	0
209	0x00	0
210	0x00	0
211	0x00	0
212	0x00	0
213	0x00	0
214	0x00	0
215	0x00	0
216	0x00	0
217	0x00	0
218	0x00	0
219	0x00	0
220	0x00	0
221	0x00	0
222	0x00	0
223	0x00	0
224	0x00	0
225	0x00	0
226	0x00	0
227	0x00	0
228	0x00	0
229	0x00	0
230	0x00	0
231	0x00	0
232	0x00	0
233	0x00	0
234	0x00	0
235	0x00	0
236	0x00	0
237	0x00	0
238	0x00	0
239	0x00	0
240	0x00	0
241	0x00	0
242	0x00	0
243	0x00	0
244	0x00	0
245	0x00	0
246	0x00	0
247	0x00	0
248	0x00	0
249	0x00	0
250	0x00	0
251	0x00	0
252	0x00	0
253	0x00	0
254	0x00	0
255	0x00	0

sequential_1/dense_1/MatMul i1 [64, 17]
0	0x00	0
1	0x00	0
2	0x00	0
3	0x00	0
4	0x00	0
5	0x00	0
6	0x00	0
7	0x00	0
8	0x00	0
9	0x00	0
10	0x00	0
11	0x00	0
12	0x00	0
13	0x00	0
14	0x00	0
15	0x00	0
16	0x00	0
17	0x00	0
18	0x00	0
19	0x81	-127
20	0x00	0
21	0x00	0
22	0x00	0
23	0x00	0
24	0x00	0
25	0x00	0
26	0x00	0
27	0x00	0
28	0x00	0
29	0x00	0
30	0x00	0
31	0x00	0
32	0x00	0
33	0x00	0
34	0x81	-127
35	0x00	0
36	0x00	0
37	0x00	0
38	0x00	0
39	0x00	0
40	0x00	0
41	0x00	0
42	0x00	0
43	0x00	0
44	0x8b	-117
45	0x00	0
46	0x00	0
47	0x00	0
48	0x00	0
49	0x00	0
50	0x00	0
51	0x7f	127
52	0x49	73
53	0x47	71
54	0x42	66
55	0x48	72
56	0x52	82
57	0x44	68
58	0x42	66
59	0x3e	62
60	0x00	0
61	0x00	0
62	0x3d	61
63	0x00	0
64	0x00	0
65	0x00	0
66	0x00	0
67	0x00	0
68	0x00	0
69	0x00	0
70	0x00	0
71	0x00	0
72	0x00	0
73	0x00	0
74	0x00	0
75	0x00	0
76	0x00	0
77	0x00	0
78	0x00	0
79	0x00	0
80	0x00	0
81	0x00	0
82	0x00	0
83	0x00	0
84	0x00	0
85	0x81	-127
86	0x00	0
87	0x00	0
88	0x00	0
89	0x00	0
90	0x00	0
91	0x00	0
92	0x00	0
93	0x00	0
94	0x00	0
95	0x00	0
96	0x00	0
97	0x00	0
98	0x00	0
99	0x00	0
100	0x00	0
101	0x00	0
102	0x00	0
103	0x00	0
104	0x00	0
105	0x00	0
106	0x00	0
107	0x00	0
108	0x00	0
109	0x00	0
110	0x00	0
111	0x00	0
112	0x00	0
113	0x81	-127
114	0x00	0
115	0x00	0
116	0x00	0
117	0x00	0
118	0x00	0
119	0x00	0
120	0x00	0
121	0x81	-127
122	0x00	0
123	0x00	0
124	0x84	-124
125	0x00	0
126	0x00	0
127	0x00	0
128	0x00	0
129	0x00	0
130	0x00	0
131	0x00	0
132	0x00	0
133	0x00	0
134	0x00	0
135	0x00	0
136	0x00	0
137	0xb1	-79
138	0x00	0
139	0x00	0
140	0x00	0
141	0x00	0
142	0x00	0
143	0x00	0
144	0x00	0
145	0x00	0
146	0x00	0
147	0x81	-127
148	0x00	0
149	0x00	0
150	0x00	0
151	0x00	0
152	0x00	0
153	0x00	0
154	0xb2	-78
155	0x00	0
156	0x00	0
157	0x00	0
158	0x81	-127
159	0x00	0
160	0xbc	-68
161	0x00	0
162	0x00	0
163	0x00	0
164	0x00	0
165	0x00	0
166	0x00	0
167	0x00	0
168	0x00	0
169	0x00	0
170	0x00	0
171	0x00	0
172	0x00	0
173	0x00	0
174	0x00	0
175	0x00	0
176	0x00	0
177	0x00	0
178	0x00	0
179	0x00	0
180	0x00	0
181	0x00	0
182	0x00	0
183	0x00	0
184	0x00	0
185	0x00	0
186	0x00	0
187	0x00	0
188	0x00	0
189	0x00	0
190	0x00	0
191	0x00	0
192	0x00	0
193	0x00	0
194	0x00	0
195	0x00	0
196	0x00	0
197	0x81	-127
198	0x00	0
199	0x00	0
200	0x00	0
201	0x00	0
202	0x00	0
203	0x00	0
204	0x00	0
205	0x00	0
206	0x00	0
207	0x00	0
208	0x00	0
209	0x00	0
210	0x00	0
211	0x00	0
212	0x81	-127
213	0x00	0
214	0x00	0
215	0x00	0
216	0x00	0
217	0x00	0
218	0x00	0
219	0x00	0
220	0x00	0
221	0x00	0
222	0x00	0
223	0x00	0
224	0x00	0
225	0x00	0
226	0x81	-127
227	0x00	0
228	0x00	0
229	0x00	0
230	0x00	0
231	0x00	0
232	0x00	0
233	0x00	0
234	0x00	0
235	0x00	0
236	0x00	0
237	0x00	0
238	0x00	0
239	0x00	0
240	0x00	0
241	0x00	0
242	0x81	-127
243	0x00	0
244	0x00	0
245	0x00	0
246	0x00	0
247	0x00	0
248	0x00	0
249	0x00	0
250	0x00	0
251	0x00	0
252	0x00	0
253	0x00	0
254	0x00	0
255	0x00	0
